L4T4 - Pytorch for CNNs/L4305T4 - Thu/digit_model.pth (torch, 831429 bytes, 8 tensors)

conv.0.weight f4 [16, 1, 3, 3]
00000000: e453 7abd 2bd6 78be fd33 11bf 6bb7 113f
00000010: 7e2b 793e 05a4 ab3e c0de e8bd eab4 ca3e
00000020: aa48 cd3e 628c 8dbe 3eee 943e 96ca 8a3e
00000030: 302e 2bbe ecd0 f13e 9bab 893e c8c1 a03e
00000040: 2575 693a 1a11 d1bd dfa0 023f 53be 4b3e
00000050: 2841 a9be c515 9bbd eef3 83be e550 eabe
00000060: 97e9 3bbe 581b f6bd 4561 a3be 8ef9 223e
00000070: 08ee 963e 0cfb d03e bea4 b83e f92d 723e
00000080: 83f6 203e b1ec 663e 6c6d 8bbd f443 583e
00000090: 6f79 aa3e 4683 503e f2fc 49be e727 d73d
000000a0: 569d b63e 7d2a 073e 8609 4fbe 4cbc 3bbc
000000b0: 0615 9a3e 6c7f f83e 5698 173f 6c58 233e
000000c0: 59b0 79be 136d 03be 34e5 c1bd 6cb5 0fbf
000000d0: bf70 1abe 7ccc d0be dbb5 cc3e 8955 a13e
000000e0: e21b 9bbe 27e8 a33e 54cb 6dbe db64 97be
000000f0: 297c 6a3e 49d8 5f3d 1c84 47bd ef48 353e
00000100: 69b8 d43e e953 c83c f661 31be 328a 24be
00000110: e47d bbbe e794 cd3c 1caf 1c3e 9dac 9b3d
00000120: ca1d 41bd 4a5f 033f c4fc b43e 16d1 dc3e
00000130: 296f 94be 62bc f9bc 6acf 07bf be5f 4dbe
00000140: 28c7 c5be c233 293e 950d a93e 3d23 aebe
00000150: 84cd d23e 54ef 47be 421c d8be 0af1 673e
00000160: d34a 1b3e 2a44 8bbd 0ead d83d cd8e e13e
00000170: fb05 b2bd e850 2c3e 9cfc 803e feca bfbe
00000180: f948 573e ca7e 7ebd e52f 073e a98c 08be
00000190: 9629 853e e6ab d23e 5390 9c3e f74f 8f3e
000001a0: e7a2 9fbe 9e94 c73e cca8 96bd 6008 20be
000001b0: 4235 ccbe b696 94be 5566 cd3d 29e1 103e
000001c0: 289c 9cbd 5691 ae3e 313b 893e ca7d d93e
000001d0: 7ad6 873e 692b abbd 35be 713e 1740 303f
000001e0: ea4b c3be 6e67 5d3d b673 753e 7a4c 2dbf
000001f0: 2e94 e4be efa4 6f3d 47d8 493e 7d68 833e
00000200: 9563 7d3e 041d 543e 38d4 fdbc 9088 c13e
00000210: 03b2 febd 10a4 a9be 6e87 b9bd 42dc efbe
00000220: ae22 12be b11a d83e caf0 05bf 37cd a43d
00000230: 40a7 5b3e bc04 c0bd 1303 823e 6c09 e23e
-0.06111516 -0.24300449 -0.5671995 0.569205 0.24332997 0.33523574 -0.11370611 0.3959115
0.400945 -0.27646166 0.29088014 0.27107686 -0.16716838 0.47229707 0.26888737 0.31397843
0.00089057005 -0.1020834 0.5102672 0.19896822 -0.33057523 -0.075725116 -0.2577204 -0.45764843
-0.18350826 -0.12016934 -0.31910148 0.1591551 0.29478478 0.40816534 0.36063188 0.2365035
0.15719037 0.22551228 -0.0680798 0.21119672 0.3329577 0.20362577 -0.19725397 0.10505658
0.35666913 0.13199802 -0.20218477 -0.011458468 0.30094165 0.48534715 0.5921682 0.15951699
-0.24383678 -0.12834577 -0.09467545 -0.561362 -0.15082072 -0.4078101 0.39982495 0.3151057
-0.3029471 0.32013056 -0.23222095 -0.29569134 0.22898926 0.054649625 -0.048709974 0.17703603
0.41546944 0.024454074 -0.17322525 -0.16068342 -0.36619484 0.025095416 0.15301174 0.07601283
-0.04714755 0.51317275 0.35349095 0.4312827 -0.28991058 -0.030485336 -0.53050864 -0.20056054
-0.38628507 0.1652365 0.33018175 -0.3401126 0.4117242 -0.1952489 -0.4220906 0.22650543
0.15165262 -0.06800111 0.105798826 0.4405426 -0.08692547 0.16827738 0.25192726 -0.37459558
0.2102393 -0.062132634 0.13201864 -0.13334908 0.2600829 0.41146773 0.3057886 0.27990696
-0.31178972 0.38980573 -0.07356414 -0.15628195 -0.39884382 -0.29021233 0.10029284 0.14148392
-0.07646972 0.34095258 0.26802972 0.42478782 0.2653082 -0.08357889 0.23607714 0.68847793
-0.38143855 0.054053716 0.23969921 -0.6769482 -0.44644302 0.058506902 0.1971141 0.25665656
0.24745019 0.20714194 -0.030984983 0.377995 -0.12436297 -0.33132982 -0.09059034 -0.4684773
-0.14271042 0.42207864 -0.5232054 0.08046954 0.2145052 -0.09375903 0.2539297 0.44147813

conv.0.bias f4 [16]
00000000: 2ee1 56be 362c c8bc f6c9 953e 85c2 34be
00000010: da07 44bd 221c 8e3c 4cc9 fabd 6382 a4bc
00000020: d173 153e 8fe5 c3bd d260 bdbd 1dd4 273d
00000030: e87b d33d 5c77 043d 1136 9fbd 43b1 243e
-0.20984337 -0.024435144 0.29255646 -0.17652328 -0.04785905 0.0173474 -0.122454256 -0.020081704
0.14594962 -0.09565269 -0.09246983 0.04097377 0.103263676 0.032340392 -0.07773984 0.16083245

conv.3.weight f4 [32, 16, 3, 3]
00000000: 5f05 e03d 8846 193c 822e 23be 0f6b 03bd
00000010: 9a68 be3d 8601 803e e703 efbd d1c6 75bb
00000020: d65f ba3d bbfc 543d a0a4 b83d 721a 843c
00000030: 3666 783d 433b 6bbd bda7 07bd 6cb4 43bd
00000040: 43df 72bc 225d ab3d 7c4d 2abe 581e 40be
00000050: 715e 02bd 1df3 a0be dc1d c1be 92ec 9fbe
00000060: 2a20 80be 533f afbe fda3 86be 26c1 163e
00000070: e5f6 843d 99b4 e8bd 4e65 b53d 6e73 7e3d
00000080: 3cbe 1e3c c447 613d 3ef9 bd3d a0f0 b03d
00000090: a855 153e 716e f03d 31dd 4cbd 9856 933d
000000a0: 856c b43d 3ca3 363e ad30 193d f01c 7b3d
000000b0: 8737 5f3e c3fa 59be ea82 55be a910 56bd
000000c0: e691 1dbe 8bc5 fbbd 82a7 3bbe cb30 46be
000000d0: 6f98 e6bd 1666 463c 9652 003e 6842 763d
000000e0: 7ca2 1e3e 051d eabc 5e16 8abc 5b92 a23d
000000f0: 6e03 dcbd a655 71bc 813a b23d 7a69 813d
00000100: b082 9d3c bd4a cc3d 7e46 8fbc 2144 96bc
00000110: 0001 323e 9385 06bc fd49 5f3d f8c5 483e
00000120: 8e9b 57be b56d 69be 777b 613d 56dd 47bd
00000130: 2b7f 38be b7ce 5ebe 1c69 36bd d67e ad3d
00000140: 64ca abbc b2cc a53b 3781 563e ac59 913e
00000150: abfd bdbd b814 f73d b6ad 083e c8ff 1fbe
00000160: 2e81 f7bd 0774 b53c 45bc d93d d271 223e
00000170: b8f3 ff3c 3dcd 463c fa72 313d f63b bc3d
00000180: ff3e 94bc 03d6 fdbc c191 933d 93f6 ba3d
00000190: fd1e 283d f187 933d cd68 cdbd 334c 00be
000001a0: 0f88 adbd 939c 853c 121f c0bd 7e47 a3bc
000001b0: 6934 0a3d 5dc3 47bc 848d 84bd 1f3e 7cbc
000001c0: 3e28 a3bd 1dfa 313c 8f02 96bd 93e3 80bd
000001d0: fa09 c3bc 171b da3d 09fb a3bd 773d bdbd
000001e0: 5e15 063e aafc 943e 3f24 933d 594c 723d
000001f0: 6438 1a3e 15c1 0e3e 3293 b23c 8539 3cbd
00000200: 8f57 6ebd 0e04 623c 53f7 243e 0e5c cebd
00000210: 664e 25bd 3768 283e 8cbd 263e cc2e dabd
00000220: dd35 78bc e1dc 27be 612c 97bd e4b2 9bbd
00000230: 4530 45be 2e90 fdbd 4170 0ebe 7468 d7bd
00000240: 7b4d 463c 7dd2 04bd be89 52be e154 2ebe
00000250: a598 163e 8a8f 913e 5d00 2cbe ae94 f2bd
00000260: 71a0 4f3e bf1c b43d 7063 d53d 8b09 83bd
00000270: 3d06 22bd ff3a 06bc c6eb bebd c1b8 a2bc
00000280: af6c 843c 6573 a83d a185 e4bd d63a 21be
00000290: 7c55 3d3d 44fb c8bd d668 91be 02c0 4cbe
000002a0: c086 4cbd 0197 82be 849e a5be 2f31 983d
000002b0: 37b3 dd3d ea96 f9bd c7b4 993c 17b6 0ebc
000002c0: 3902 d4bd d151 27be 28de 89bc 0eba a73d
000002d0: 141a 003d 2c39 b23d c1e2 923a 9939 a33c
000002e0: 0989 413d 59c5 123e 1f91 0fbe 5baf 26bd
000002f0: 1142 0e3e 452f 90bd af9a cabe 9733 abbd
00000300: edfe 8fbd b66b 01be 5113 2abe bb50 24bd
00000310: 7223 a4bd 2301 1e3e 0a86 873c 4d03 1e3e
00000320: cbc3 0c3e 727a d8bd 50c2 103d 29db 313e
00000330: 59c4 6dbe c23b 44be 604c 12be c58c c4bd
00000340: 0602 ebba db26 603e 2c0a 0abe 6d11 543d
00000350: 4d1f 003e af34 9dbd c005 1cbc 9c9b 3a3e
00000360: 4c64 b5bd b8df 39be 6453 1c3e 267b e23c
00000370: 7180 a93c bdb9 01be db9e 35bd 4f6c 423e
00000380: 1b75 243e 988b 94bd eaa3 1e3e a161 553e
00000390: 6866 e2bd f186 513d b957 6b3e bbd1 16be
000003a0: 5e4b e3bd 4eae 67be 4049 2dbd f4a9 093e
000003b0: 77dd 0d3e 418d 48be 8d56 f03d 2433 0b3e
000003c0: 1e36 28be ca44 bdbd d228 c2bd 339b 0cbd
000003d0: 49e2 9d3d 1a1b a23d 3955 fcbd 3ea3 b7bd
000003e0: a921 46bc 3613 27bd 2f51 b3bd 2842 8ebc
000003f0: e0f6 9cbd 4d55 883b 9f9a 16be 23d0 54bc
0.109385245 0.009355195 -0.1593571 -0.03208452 0.09297295 0.25001162 -0.11670666 -0.0037502537
0.091003105 0.051998835 0.09015775 0.016125891 0.06064435 -0.057429563 -0.033118952 -0.047779486
-0.014823738 0.08367373 -0.1663112 -0.18761575 -0.031828348 -0.3143548 -0.37718093 -0.31235176
-0.2502454 -0.34228 -0.26296988 0.14722118 0.06492404 -0.11362571 0.08857213 0.0621218
0.00968891 0.05500008 0.09276055 0.086396456 0.14583457 0.11739815 -0.050015632 0.07194251
0.08809761 0.17835706 0.037399936 0.061306894 0.21798526 -0.21287064 -0.20850721 -0.052261982
-0.15387687 -0.12293538 -0.18325618 -0.1935455 -0.11259543 0.0121093 0.12531504 0.060121924
0.1549167 -0.02857829 -0.016856369 0.07938071 -0.10742842 -0.014729893 0.08702565 0.06318946
0.019227356 0.09975193 -0.017489668 -0.018343033 0.17383194 -0.0082105575 0.05451392 0.19606769
-0.21055433 -0.22795756 0.055049386 -0.048795067 -0.1801726 -0.21758543 -0.044533834 0.08471458
-0.02097053 0.005059802 0.20947729 0.28388727 -0.09276899 0.12064499 0.13347515 -0.15624917
-0.12085186 0.022150053 0.10631613 0.15863732 0.031244144 0.012133894 0.04332254 0.09191124
-0.018096445 -0.030985838 0.07205535 0.091290615 0.041045178 0.07203663 -0.10029755 -0.12529068
-0.08473217 0.016310012 -0.09380926 -0.019931551 0.03374139 -0.012192574 -0.064723045 -0.01539567
-0.0796666 0.010862854 -0.07324707 -0.06293406 -0.023808468 0.10649698 -0.080068655 -0.09240239
0.13094088 0.29099017 0.07184648 0.059154842 0.15060574 0.13940842 0.021798704 -0.045953292
-0.05818897 0.013794912 0.16109972 -0.10076152 -0.04035797 0.16446005 0.16283244 -0.10653457
-0.015149561 -0.16392852 -0.073815115 -0.0760248 -0.19256695 -0.12381016 -0.13910009 -0.1051797
0.012103434 -0.0324273 -0.20560357 -0.17024566 0.14706667 0.28429824 -0.16797014 -0.11844765
0.20276047 0.087945454 0.10419357 -0.063983046 -0.03955673 -0.008192777 -0.09322314 -0.019863488
0.016165106 0.08225135 -0.111583 -0.157451 0.046224102 -0.0981355 -0.28400296 -0.1999512
-0.049933195 -0.25505832 -0.323475 0.07431256 0.10825198 -0.12186988 0.01876296 -0.008710406
-0.103519864 -0.16339804 -0.016829565 0.08189784 0.03127487 0.08702311 0.0011206494 0.019924926
0.047249828 0.14333095 -0.14020203 -0.040694576 0.1389239 -0.07040266 -0.3957114 -0.08359449
-0.07031045 -0.12638745 -0.16608931 -0.040116053 -0.08014573 0.15430121 0.016543407 0.15430947
0.13746564 -0.105702296 0.03534156 0.17368759 -0.23219432 -0.19163421 -0.14286947 -0.09597162
-0.001792968 0.21889822 -0.13480443 0.05177443 0.1251194 -0.07676064 -0.009522855 0.18223423
-0.08857021 -0.18151748 0.15266186 0.027646612 0.020691128 -0.1266851 -0.04434095 0.18986629
0.16060297 -0.07253188 0.15492216 0.20838024 -0.11054689 0.05115408 0.22982682 -0.14728443
-0.110983595 -0.22625086 -0.042306185 0.13443738 0.13854013 -0.19585134 0.11735258 0.13593727
-0.16426894 -0.09241636 -0.09480442 -0.034327697 0.07709176 0.079153255 -0.123209424 -0.08966683
-0.012092986 -0.040789805 -0.08755719 -0.01736553 -0.07664275 0.0041605593 -0.14707421 -0.012989077

conv.3.bias f4 [32]
00000000: a146 4abd 5e73 17bd 026d 14bd 01bc 62bd
00000010: a683 80bd 375d 2cbe acae 13be 3860 833c
00000020: f3cd 2c3d d4bc c7bd 45af 55bd 9d61 5d3d
00000030: f592 acbd 639b 93bd 391f 3fbc 27a1 bebc
00000040: 098a f8bd 0055 1c3c fe0b f8bd 189c abbd
00000050: 8693 65bd 73ae e03c 3141 c2bc 6a6e 7d3d
00000060: aed5 cbbd 802a 80bd 5968 55bd 8eb3 ab3d
00000070: 8c29 7ebd 4c46 ffbb c94f 17be 3d90 42bc
-0.049383763 -0.036975257 -0.03623677 -0.055355076 -0.0627511 -0.16832434 -0.14422101 0.016037092
0.042188596 -0.09752813 -0.052169103 0.05404817 -0.08426467 -0.07207372 -0.011665159 -0.023270203
-0.12135703 0.00954175 -0.12111662 -0.08379382 -0.056048892 0.027426934 -0.023712726 0.061872877
-0.099528655 -0.06258106 -0.052101467 0.08383857 -0.06205134 -0.0077903625 -0.1477653 -0.011875209

fc.0.weight f4 [128, 1568]
00000000: e8e3 ea3c f953 b1bb eeef f5ba d7b3 a23c
00000010: c524 443d 47fc a03c f000 4e3b 9602 7bba
00000020: 1b9b bf3c 4d8a ae3d 2936 f33c 8d4e 173d
00000030: ecdd 7ebc d729 163d 3fd2 61bc da8f 18bd
00000040: d1e8 0abc 01cb 963c c3c1 71bc 9d97 87bd
00000050: 1935 a23c e743 563d 83de 5ebc bf57 e5bc
00000060: 2079 d23d bca1 3d3d a70c 83bd b38d e5bc
00000070: 2a10 9d3d c088 0ebd 7aaf 06bd 3071 943d
00000080: d121 9c3d 381b 0ebd fbc9 b1bc 3242 693c
00000090: 7807 013d a973 2abc 54f4 94bc 1057 433d
000000a0: f498 38bb b354 813c 0b8b ce3c 9dd1 d83c
000000b0: 650e e33c 0b44 b93b e6d6 c6bc eba1 97bc
000000c0: 483e 3ebb fb16 243d 3e1f a43c feb0 873d
000000d0: b02a 863d c81b 6f3c 90e5 1a3c 87f9 9a39
000000e0: fb7f 883c 2731 ff3c f6e8 8b3d 790f 153d
000000f0: c549 bf3b 5e4c 163d 1d64 eb3c 6268 64bc
00000100: 11b4 e9bb 6f69 013d 1339 323d ac22 293d
00000110: 2750 fb3b 8a68 6f3c 36c9 383d f1f0 91bb
00000120: f27e d43a 916a 8e3d 73a3 323d 4c57 4cbd
00000130: 4088 1dbc 83cf 993d 7e24 be3b b85d 5ebc
00000140: 19c9 f33d 8a3e e0bc 797c aebc e6ce d8bb
00000150: 7e57 ca3c 87a8 103d 6bfb bb3c e38d 5abd
00000160: b83e 383d aae6 253d 37ea ee3c 5d32 5a3c
00000170: 1601 493d 53d6 9f3c 4fbf 93bc 4b05 1dba
00000180: 4a6f de3c 6d7d 183d 563e 1d3d a470 c43c
00000190: 3343 c43c 19e8 573d a90c 193d dd36 343c
000001a0: 420d a23c 02a6 f13c f8cf 7d3c 7635 91ba
000001b0: 1d40 43bd 7cf3 d5bc aff4 cb3b e3d8 103c
000001c0: 0099 c53c b130 44bc d463 dfbc 9266 e33b
000001d0: ae62 ecbc 59ed e3bc 6cdb ef3c 0d28 0d3e
000001e0: 330c 143e f6f2 b93c 1275 c33d 1326 ba3c
000001f0: 230e d0bc 70dc 0a3d 478f 103e 1284 643d
00000200: 6469 12bd e098 3c3d 6d95 ee3d d1ef ba3d
00000210: 19c8 473d 49e4 203d 5c1a f43c ce0c e63c
00000220: 7504 1ebc 5d9e 113d c262 863d e5e4 383d
00000230: 8f3e 663b 3faf 6e3c 0f12 cc3d a8b6 67ba
00000240: 0526 1bbd b469 6c3b 7f38 35bb a405 1bbc
00000250: 9e1f 903b 81aa 30bb 4c09 89bc 9de1 e73c
00000260: 6357 ccbb f5f3 13bd c15d f9bb ad89 113d
00000270: 7504 b13c 8daf 3d3d 27f4 ae3d 688c 9d3d
00000280: 0a76 113d 10cf f93c d2e5 58bc e50b f1bd
00000290: bdab 8abd afa6 b63c 609f 0b3d 931b a8bc
000002a0: 81e3 063d d022 17be 8d9a a5bd 8798 ab3c
000002b0: 92ec 023d 829c a9bd 542f acbd 52e7 8dbc
000002c0: fbef 85bd 9491 b3bb b736 953c 7bc7 80bc
000002d0: 8c2e 14bd 7b4c 17bd cc86 403b 0faf 283d
000002e0: a7c7 593c 9970 b9bb f4a0 cd39 565d 70bb
000002f0: ba42 7d3c 7f3d 0c3d 3b20 98bd 1718 14bd
00000300: 6b32 d83b 3710 03bb 6b00 de3b 6e64 4a3c
00000310: 7dd3 923b ea09 423d 2294 473c 2e9e cb3c
00000320: 3a84 b23c b536 453c 28b5 debc 83ff b43c
00000330: 7b53 113d 6cae 8c3c 4f03 05bd e868 4abc
00000340: 78e1 ad3c 6408 2dbc e59c 663c 9ffa 8a3c
00000350: e38b e23c 3b53 f1bc c3d9 25bc d0a7 52bc
00000360: a406 3d3d 92de 073a 1485 143d 7e15 863d
00000370: 69b0 113d 4d00 a83c e860 81bb 5c4f 2e3d
00000380: 8a6f ec3c 57e8 f03c b4d0 1f3d 5579 e53c
00000390: 7c47 dfbc 9248 8a3d 87f7 613d afee 6a3d
000003a0: 6741 8c3d 4fb0 663d 0a28 a23c 2f8a 303d
000003b0: 39d0 613d 906c 313c 0d1c 84bd 3569 1ebc
000003c0: 63bc 8539 6227 d33b 66d5 2dbd ea57 40bd
000003d0: 00d4 abbc 5690 ed3c 4114 0d3d 1d89 873c
000003e0: d2e0 073d 588d ce3b 22b1 3a3d 8429 113c
000003f0: 6daa db3b 3138 e73c 8e91 8a3c 23c6 f0bc
0.028673127 -0.0054116216 -0.0018763521 0.019861145 0.04788663 0.019651545 0.0031433664 -0.00095752755
0.02338939 0.085224725 0.029688912 0.036940146 -0.01555584 0.036660995 -0.013783037 -0.037246563
-0.008478359 0.018407347 -0.014755669 -0.06620715 0.01980071 0.05231085 -0.013602856 -0.027995942
0.10277009 0.04629682 -0.063988976 -0.028021669 0.07669099 -0.034798384 -0.03288219 0.07248151
0.076236375 -0.034693927 -0.021702757 0.014236974 0.031501263 -0.010403552 -0.018182911 0.04769045
-0.002816734 0.015787458 0.025212785 0.026467139 0.027716825 0.0056538633 -0.024272393 -0.018509826
-0.0029028822 0.04006098 0.020034429 0.066255555 0.06551111 0.014594026 0.009454146 0.0002955908
0.016662588 0.031151367 0.06831543 0.03639171 0.0058376514 0.036693923 0.028734261 -0.013940902
-0.0071320613 0.03159469 0.04351146 0.04129283 0.007669467 0.014612326 0.045113765 -0.0044537713
0.0016212149 0.0695392 0.04361291 -0.04988794 -0.009615004 0.07510283 0.00580269 -0.013572149
0.11903591 -0.027373571 -0.021299588 -0.006616461 0.024699923 0.03531697 0.022947034 -0.05335797
0.04498169 0.04050318 0.029164417 0.013317672 0.0490733 0.019511377 -0.018035559 -0.00059898634
0.027152676 0.03722899 0.038389526 0.023979492 0.023957824 0.05271158 0.03736559 0.010999409
0.019781712 0.029498104 0.015491478 -0.0011078555 -0.047668565 -0.026117079 0.006224237 0.008840772
0.024120808 -0.0119745 -0.027269281 0.0069397176 -0.028855648 -0.027823137 0.029279433 0.1378481
0.14457779 0.02269886 0.09543814 0.022723233 -0.025397366 0.03390163 0.14117156 0.055790015
-0.03574504 0.04604423 0.116495945 0.091277726 0.048774812 0.03928021 0.029797725 0.028082278
-0.009644617 0.035551418 0.06561805 0.045140166 0.0035132503 0.014568149 0.09964382 -0.00088391686
-0.037878055 0.0036073746 -0.0027652082 -0.009461794 0.0043983003 -0.0026957097 -0.016728066 0.028305823
-0.0062360032 -0.036121327 -0.0076100533 0.03553169 0.02160857 0.046309996 0.08542662 0.07692796
0.03551296 0.030494243 -0.013238387 -0.11769847 -0.06771038 0.022296278 0.03408754 -0.02052096
0.03293181 -0.14759374 -0.08086119 0.020946754 0.031963892 -0.082818046 -0.084074646 -0.017322216
-0.06539913 -0.0054800007 0.018214567 -0.01572012 -0.036177203 -0.03693817 0.002937722 0.041182574
0.01329223 -0.0056591746 0.00039220566 -0.0036676726 0.015457803 0.034238335 -0.074280225 -0.036155786
0.006597807 -0.0019998678 0.006774952 0.012353046 0.004480778 0.047372736 0.012181314 0.0248557
0.021791566 0.012036969 -0.027185991 0.022094494 0.035480004 0.017173015 -0.03247386 -0.012354113
0.021225676 -0.0105610825 0.0140754925 0.016965209 0.027654594 -0.029458633 -0.010122719 -0.012857392
0.04614891 0.0005183007 0.036259726 0.06547068 0.03556863 0.020507956 -0.0039483197 0.04255615
0.02886178 0.029407663 0.039017394 0.028011957 -0.027255766 0.06752123 0.0551677 0.057356533
0.06848412 0.056320485 0.019794483 0.043100532 0.055130217 0.010829106 -0.06450663 -0.009668638
0.00025508096 0.006443904 -0.04243984 -0.04695884 -0.020975113 0.028999489 0.034443144 0.016544873
0.03317339 0.0063034706 0.045579083 0.008859996 0.006703666 0.028225036 0.016915109 -0.029391354

fc.0.bias f4 [128]
00000000: 90bb 513c 8eb4 663c 29ea 183c 004f cfbc
00000010: 994c 163d 7fce 2cbc 676e 01bd 8e71 80bc
00000020: 6bed 3c3d 1cf6 c5bc 8a80 1a3d 2744 62bd
00000030: a83d d33a 83ec 3e3c 61ce 393d 73d3 dcbc
00000040: 8b5a 8f3c 5597 10bc 4091 fd3b 1816 073d
00000050: e42f 56bc dc20 c6bc d6ef 1b3d f044 303d
00000060: aea7 d5bc 968d a4bc de59 99bc 00dd 5c3c
00000070: 37c3 c03b e097 eebc 4c86 cdba c502 0a3c
00000080: 236a fbbc 4ebd 9f3a 680e 6d3c e230 263c
00000090: c182 f3bc 15b9 b93c 0b3a e23c c7e3 e9bc
000000a0: 4e73 763c f0ff 46bb 377a 04bb c7e1 c1bc
000000b0: ab35 9e3c de5b e3bb e63e 473c 910e aabc
000000c0: e413 f7bc a151 cf3b abbb 00bd eaf3 563d
000000d0: c5ba 0b3b 0c7b c2bc 9fcb e9bc 1223 693c
000000e0: 62df 7dbd 7a91 78bc 9307 553d b12e 073c
000000f0: e9d4 80bc a0ca 2f3c 2e78 913c d7f8 56bc
00000100: 568d 21bd dd92 48bc ad0d 0f3c b8a6 ccbc
00000110: 5ab1 ddbb ec50 77bc af93 a63c 6ca3 dd3c
00000120: 6acf 9a3c b603 34bc 9260 153d b673 dabc
00000130: 27ea a839 cb09 e83c 2754 8abc 9b0f d33b
00000140: af2b 12bd 3d76 47bb b4f9 92bc 7c09 3bbd
00000150: 2e8b 213c 109a 6abc dee5 ac3c 42e8 05bd
00000160: 6ff7 c03c 456e 3abc 0a19 abbb f0bc e6bc
00000170: 6d87 fa3c 580c 9abc cfc7 fe3a 7144 323b
00000180: 3379 dbbc c5d6 f7bc 1ab7 aa3b 545f d83c
00000190: d743 c4bc 62d4 47bb f45c 09bc 479d 1f3d
000001a0: dbbc 08bc e9a2 d0bb 49fa c33b 7f0e 07bc
000001b0: aefe 003c 38d9 143d 7a75 90bc 949c 713d
000001c0: 063c 26bc 7654 8ebc bcd2 503c b676 8a3b
000001d0: 1d91 e03c 3742 12bc d740 a43b b3a5 5d3b
000001e0: 514b 063d 5f7f 903b 87ff 893c 72ff e83b
000001f0: c21d cabb 2ecf 00bd 96e8 0d3d 0514 9abc
0.012801066 0.0140811335 0.009333172 -0.025306225 0.036694143 -0.010547279 -0.03159943 -0.015679147
0.046124857 -0.024165206 0.03772024 -0.055240776 0.0016116397 0.0116530685 0.045362834 -0.026956296
0.017499229 -0.008825143 0.0077382624 0.032980055 -0.013072941 -0.02418559 0.038070522 0.043034494
-0.026080932 -0.020087045 -0.01871961 0.013480425 0.0058826464 -0.029125154 -0.0015680282 0.008423512
-0.030690258 0.0012187154 0.014468767 0.0101434905 -0.029725434 0.022671262 0.027615568 -0.028550996
0.015042139 -0.0030364953 -0.0020214447 -0.02366723 0.0193127 -0.0069384417 0.012160992 -0.020758899
-0.030160852 0.0063268696 -0.031428974 0.05247871 0.002132104 -0.023740314 -0.028539477 0.014229553
-0.061980613 -0.015171403 0.052009176 0.008250878 -0.015726523 0.010729462 0.017757501 -0.0131208515
-0.03944143 -0.012242046 0.008731288 -0.024981841 -0.0067655267 -0.015094977 0.020334093 0.027055465
0.01889773 -0.010987213 0.03646905 -0.026666503 0.00032217914 0.028324982 -0.01688583 0.0064410693
-0.03568619 -0.0030435466 -0.017941333 -0.045663342 0.009859843 -0.014318958 0.021105703 -0.0326922
0.023555486 -0.011378829 -0.0052214907 -0.028166264 0.030582154 -0.018804714 0.001943821 0.0027201439
-0.02679119 -0.030253777 0.0052098157 0.026412643 -0.02395813 -0.003049158 -0.008383978 0.03896835
-0.008345808 -0.0063670767 0.005980764 -0.008243202 0.00787322 0.03633997 -0.017634142 0.058987215
-0.010146147 -0.017374258 0.0127455555 0.004225577 0.027412945 -0.00892692 0.0050126123 0.0033820688
0.03278667 0.004409715 0.016845478 0.0071105296 -0.006168098 -0.031447582 0.03464564 -0.018808374

fc.2.weight f4 [10, 128]
00000000: ba2d fabd 0641 8ebd aa49 8fbd bd82 b1bd
00000010: 7777 d83d 990d 97bc df81 b8bc 1d5e 31bd
00000020: 6197 143e 38b2 45bd 9459 063d 9e04 1d3c
00000030: 636f 07bd d8c4 3dbd 8266 4fbd deac 1aba
00000040: 61cd 7cbd c96c f53c 4e34 60bd 66cf 14be
00000050: e389 033e a35b 4fba 573d 923d 4412 15be
00000060: 0a4f 16bc 3b7f 6f3a 39df 03be e270 963d
00000070: c8f1 e23c db38 943d 112c 843c 50c3 263d
00000080: 903b 8ebd 62e2 253d d230 963d 4295 883d
00000090: 594d c7bc 795d c63d 6242 f0bd 15f8 80bd
000000a0: 037d d9bd e352 6b3d 3767 30bc ca7f aa3b
000000b0: 125f a03d 3fa5 98bd 6020 75bd f12d 973d
000000c0: bec4 ab39 6eae 0cbd 56a5 e73d 68fc 64bd
000000d0: 5c67 383d 8794 a5bd e75e d93d 8148 2a3d
000000e0: d960 1fbe 60c4 593d 67cf f9bd 149c 9bbd
000000f0: ee10 dc3c 824c fbbd f3b4 723d 0dc7 97bd
00000100: 7807 693d c12f 2abe d315 6abb da69 6e3d
00000110: a282 07bc 9914 89bd aaf3 933d 9071 e3bb
00000120: d801 be3d 51e2 f43c baca 25be 67d3 e63b
00000130: cbad 1dbe 61af 813d bce5 01bc f267 b1bc
00000140: e7a7 02bd 69f1 84bd 58ea a9bd 3b40 ae3c
00000150: 45f0 52bc b477 15bd 3ca8 b03d e5cf 553c
00000160: 3f6a a03d a5ed 44bc 96db 30bd 81e0 d43c
00000170: c8b5 e13c 08f0 ae3c a879 c63c 8d2e 2a3d
00000180: 069d a0bd 016c a4bd e4ef a53a 80ed c03d
00000190: 8220 01be 7e4d c5bd b609 a73d a6e5 c83b
000001a0: 1d31 093e d171 993d c236 3fbd 735a 3fbd
000001b0: 1d66 8c3d 5848 d1bd 3940 0cbe a538 d6bd
000001c0: c4c2 9c3d fecb 7e3c d4f3 b5bd 9944 28bd
000001d0: 7b72 12be 23e8 68bd 112b af3d 91fd 8c3d
000001e0: 762d 5ebd 4c28 413d 0fdc 05be 4f13 5dbd
000001f0: 09ba 563d ee44 b2bd b7f6 473d d9dc cd3c
00000200: 6a4a 083e fce7 343d 8c41 74b9 4393 edbc
00000210: 6161 333e 42b0 2a3d cb05 30bd bbf2 0b3c
00000220: 0583 7c3e e359 283b 18a0 033e 74c3 b8bd
00000230: 5810 1fbd 3a3f 8b3d b0ce 9f3d 51f5 353d
00000240: 138b aebc 3f6c 34bd 4d66 713d 535e 923d
00000250: b936 493d 0a30 913d 6523 2cbe 448e 6ebc
00000260: f6ae e83c 1fb4 9c3b f691 febd fbb0 6b3c
00000270: a6fc bdbd f3b4 c0bd 8e24 e1bd 830d 6fbe
00000280: e6ff ac3c eaa6 4d3d 2ac9 ae3c 7153 5d3d
00000290: 102d 9abd d363 f6bd 43ad ad3d 2caa 49bc
000002a0: 2f23 af3d ef08 2c3d cc10 5cbd 2b67 02bc
000002b0: 27ca 67bd e472 233d 0e99 35bd 6c4b 5a3d
000002c0: 7b59 3b3d a5f7 acbd 2341 ccbd 0edd b53d
000002d0: 288c 853d 67ea b1bd a235 c1bd 4d23 a53d
000002e0: 28e4 e2bd 5142 53be d98f 113e b711 8b3d
000002f0: 04c6 15bd b78a a03c 28fb 9c3d 5b32 f2bc
00000300: d895 0dbd 88fe 0cb8 ab8e a6bb 2a5b 0e3d
00000310: ee9c 5b3d c3b5 72bc d4f7 4c3d 44cf 4bbe
00000320: 2da0 5abd 1319 89bd c010 4d3b 5f39 a93c
00000330: 0bbc 8b3c 2af1 c53d 43b8 07bd 1dc4 6c3d
00000340: b51c 31bd e902 683d b09f 39bd 1a8a 4a3d
00000350: 53e5 c9bd 8756 2c3c b6ce c03b 7b88 f23c
00000360: 208f a73c 4d10 413d 788c 9ebd 77be 3abd
00000370: 9a77 ff3d 325c e0bd 3c61 933d 9952 02be
00000380: f79f c2bd 0417 993d 8ee1 4fbc 9959 053e
00000390: bf6b e1bd 60e6 9a3d 6ece adbd 82fb 43bd
000003a0: fed9 efbd d363 233c 9942 6e3d 1871 b23d
000003b0: eee7 a4bd aaf1 62bc 8b36 0abe 6c0e 31bc
000003c0: e5e3 19be d035 e7bb 7c42 2dbd 453a c43d
000003d0: 0387 ed3d 6243 ac3d 7889 983d 8fbd 0e3e
000003e0: 92c2 0ebe 9be5 0cbe 755d 61bd 9b7c 29bc
000003f0: 197e 253d 916c a0bc ae53 103e 1dd8 11be
-0.12215753 -0.06945996 -0.06996472 -0.086675145 0.10569661 -0.018439101 -0.022522865 -0.043302644
0.14510871 -0.048265666 0.032800272 0.00958362 -0.03306521 -0.046330303 -0.05063487 -0.0005900393
-0.061719302 0.0299591 -0.05473738 -0.14532241 0.12845568 -0.0007910078 0.07140606 -0.14557749
-0.009174118 0.0009136085 -0.12878121 0.073457494 0.02770318 0.07237407 0.016134294 0.04071361
-0.069449544 0.0404991 0.073335305 0.06669094 -0.024328874 0.09685797 -0.117314115 -0.06297318
-0.10619547 0.057452094 -0.010766796 0.005203222 0.07830633 -0.07453393 -0.05984533 0.073818095
0.00032762246 -0.034346037 0.11310832 -0.055904776 0.045020446 -0.0808497 0.10613804 0.04157305
-0.15564288 0.053165793 -0.12197762 -0.07598129 0.026863541 -0.12270452 0.059254598 -0.07411013
0.05689189 -0.16619779 -0.0035718575 0.058206417 -0.008270891 -0.06693382 0.072242096 -0.006941028
0.092776954 0.029893072 -0.16190615 0.007044244 -0.15398328 0.06332279 -0.007928308 -0.02165601
-0.031898405 -0.06491358 -0.08296651 0.021270862 -0.0128746675 -0.03649111 0.08625838 0.013050054
0.07832765 -0.0120195495 -0.043178163 0.025985958 0.0275525 0.02135469 0.024227932 0.0415483
-0.0784245 -0.080284126 0.0012659994 0.094202995 -0.12610057 -0.09633921 0.08156149 0.006130892
0.13397641 0.07492412 -0.04668308 -0.04671712 0.06855414 -0.102188766 -0.13696374 -0.10460023
0.07654336 0.015551565 -0.08884397 -0.041081045 -0.14301483 -0.056862008 0.08553136 0.068843015
-0.054242574 0.04715757 -0.13072227 -0.053973492 0.05242351 -0.087045535 0.04881927 0.025129722
0.13309637 0.04416655 -0.00023294071 -0.029000884 0.17517616 0.041672 -0.042974275 0.008541758
0.24659355 0.0025688342 0.1285404 -0.09021655 -0.038833946 0.06799169 0.078030944 0.044423405
-0.02130655 -0.044048544 0.058935452 0.07146897 0.049124453 0.07089241 -0.16810377 -0.014560286
0.02840374 0.0047822143 -0.124301836 0.014385457 -0.092767045 -0.09409513 -0.109933004 -0.23344998
0.021118116 0.05020801 0.021336157 0.054034654 -0.07528126 -0.12030759 0.08480313 -0.012308639
0.085516326 0.042000707 -0.053726956 -0.0079591675 -0.056589272 0.03990449 -0.044335417 0.053294584
0.045739632 -0.08445672 -0.09973361 0.088800535 0.06520873 -0.08687287 -0.09434058 0.08063374
-0.110786736 -0.20630766 0.1421503 0.06790488 -0.036565796 0.019597394 0.07665092 -0.029565027
-0.03456673 -3.361565e-05 -0.0050829253 0.03475491 0.053616457 -0.014813843 0.050041035 -0.19903284
-0.05337541 -0.06694236 0.0031290501 0.02065724 0.01705744 0.09665139 -0.03313471 0.057804216
-0.043240268 0.0566434 -0.045318305 0.04944811 -0.09858193 0.010518677 0.005884017 0.029606095
0.02045399 0.047134686 -0.07741636 -0.045591798 0.12473984 -0.10955085 0.0719628 -0.12726821
-0.09503167 0.07475093 -0.012688054 0.1302246 -0.11006879 0.07563472 -0.08486639 -0.04784728
-0.117115006 0.00997253 0.05816898 0.08712977 -0.080520496 -0.0138515625 -0.13497369 -0.010806661
-0.15028341 -0.0070559755 -0.042299733 0.095814265 0.11598017 0.0841129 0.07448095 0.13939498
-0.1394141 -0.13759463 -0.05502077 -0.01034465 0.04040346 -0.019583018 0.14094421 -0.14242597

fc.2.bias f4 [10]
00000000: 5a52 36bd 7ca5 15bc 125c 1a3c fe24 713c
00000010: 5783 fd3b 9b22 be3d 0eb6 5d3d 0ff6 35bd
00000020: 18a3 97bb cf85 89bd
-0.04451213 -0.009133693 0.009421365 0.014718292 0.007736604 0.09283944 0.0541287 -0.044424113
-0.0046275966 -0.06714975
