L4T4 - Pytorch for CNNs/L4305T4 - Thu/fashion_model.pth (torch, 831457 bytes, 8 tensors)

conv.0.weight f4 [16, 1, 3, 3]
00000000: 738b 3c3e 11c6 ff3d 7f6c 073e 69da bf3e
00000010: 5a2d 2a3e b8ed eabd ac9b c73e 39d8 5d3e
00000020: 5681 59be 5c24 95be 36d9 f8bd e91e dd3e
00000030: d240 18be 876c e23e 0aac a43e 578c 1dbe
00000040: eced 5dbe 7f1e b53d a374 943e d629 023f
00000050: 85b1 573e 5be6 64bd dcd8 4ebe 1df6 863e
00000060: 805a bcbe 859f f9be 5b51 3ebe 6e47 b03e
00000070: 5f56 babe d2f2 1bbd 9480 903e 36db 85be
00000080: accb 8bbb 98ab fd3e 62b5 b0be 97e2 13be
00000090: 0e24 dd3e ac47 30be a5d5 afbe f7fa a63e
000000a0: 07a4 223d d862 9abe b6eb 073e 64e2 353e
000000b0: b096 63be 4a79 16bf c904 00bf aa38 15be
000000c0: f15b 98bf d696 22bf 4095 31bf 3f77 20bf
000000d0: 1341 27bf 77f7 89bd 7e9b 43bd 623f 05bf
000000e0: 8b09 17bf a581 293d e63d cbbe ffef 99be
000000f0: 84c0 e93d 7411 c63e 9b00 91be 4699 d7be
00000100: 54d3 b5be 493c 0bbf 11c7 dbbb ee9f 47bf
00000110: e4ac 65bf 9d99 d03e 3c3f 0abe 5d76 39be
00000120: 240a 263e 76dd a63c 5fa6 7c3e 85e8 42bd
00000130: d713 723e 6566 9abe 1fd5 31be 67c0 dbbe
00000140: 4f3c 7f3e 9142 703e a830 a4bd 9b72 0bbd
00000150: 8fee c3be e27e b0bf 3421 50bf a287 53be
00000160: 4026 9ebf e0a1 56bf ae99 b63e 0afd b43e
00000170: 51ec 923e 22e1 3dbd 04fb ecbd a67a 293e
00000180: 4e4c 57bd 81cb 133e 44da 06be c0e1 4d3e
00000190: f258 8ebe 0328 0c3e c7d5 e63d c6ba c13e
000001a0: 9ab3 fdbe 828d f33c 58c8 db3e 7a6e febe
000001b0: 6a26 273d 1f38 533e 0852 30be a422 7abe
000001c0: 8afb a73e 8013 33bd bc9b 8b3d 40fc 27be
000001d0: f87c 43be 4dc7 86bd 4cca 0ebf 94be 82be
000001e0: 1a52 6c3e 2c42 adbe 0774 9bbb d9ea ff3e
000001f0: 73f2 a53e 0192 913d 8ff6 3bbe e61d 83be
00000200: e93f 09bf 1c42 913e 2b49 ac3e f8a6 afbd
00000210: 4177 843e 9239 68be 2718 863e ed53 d33e
00000220: f980 bfbe e2b7 8abe 1d73 303e 5c7f f9be
00000230: c11a e9ba 23a0 ee3c d866 2f3d 64f2 9d3e
0.1841257 0.1248895 0.13224982 0.3747132 0.16618863 -0.114711225 0.38985956 0.21664514
-0.21240744 -0.29129303 -0.12150805 0.43187645 -0.14868477 0.44223425 0.32162505 -0.15385567
-0.21672791 0.08843707 0.28995237 0.50845087 0.21063812 -0.055883747 -0.20199913 0.26359645
-0.36787796 -0.48754516 -0.18585722 0.34429497 -0.3639402 -0.03807337 0.28223097 -0.26143807
-0.004266223 0.49544978 -0.34513384 -0.14441906 0.4319157 -0.1721484 -0.34342685 0.32613346
0.03970721 -0.30153537 0.1327351 0.17762142 -0.22225451 -0.5877882 -0.500073 -0.14572397
-1.1903058 -0.6351141 -0.6936836 -0.62681955 -0.6533367 -0.06736653 -0.04775571 -0.5204984
-0.58998936 0.041383404 -0.39695662 -0.30065915 0.114136726 0.3868519 -0.28320774 -0.42109126
-0.35512793 -0.5438886 -0.00670708 -0.7797841 -0.89716935 0.40742198 -0.13500684 -0.18111558
0.16214806 0.020369273 0.2467284 -0.04758503 0.23640381 -0.30156246 -0.17366455 -0.4292023
0.2492535 0.23462893 -0.08017093 -0.034044843 -0.38267943 -1.3788722 -0.81300664 -0.20657209
-1.2355423 -0.8384075 0.35664123 0.35349303 0.2869592 -0.04635728 -0.11571315 0.16550693
-0.052563004 0.144331 -0.13169199 0.20105648 -0.27802235 0.13687138 0.112712435 0.3783781
-0.49551088 0.029730562 0.42926288 -0.49693662 0.04080812 0.20626877 -0.17218792 -0.24427277
0.32809097 -0.04371977 0.06816813 -0.1640482 -0.1909064 -0.06580982 -0.5577743 -0.25536025
0.23078194 -0.33839548 -0.004744056 0.49983862 0.32411537 0.07107926 -0.18355773 -0.25608748
-0.53613144 0.2837075 0.33649573 -0.08576769 0.25872234 -0.22678211 0.26190302 0.41274968
-0.37403086 -0.27093416 0.17231412 -0.4872998 -0.0017784463 0.029129094 0.04282269 0.30848992

conv.0.bias f4 [16]
00000000: dbad 23be 2963 80bd b149 b8bc 0bdf 783d
00000010: bb03 963c 7765 763e 62ab 8f3e 820d d23d
00000020: 95a1 6a3d 5e20 c43e f875 943c 44a2 813c
00000030: c716 543e 54b7 73bd ea55 aa3d 7848 553e
-0.1598429 -0.06268913 -0.022496076 0.060759585 0.018312326 0.24062143 0.28060442 0.10256483
0.057283003 0.38305944 0.018122658 0.015824445 0.20711814 -0.059501007 0.08317168 0.20828426

conv.3.weight f4 [32, 16, 3, 3]
00000000: f8bc 1fbe 0302 e6bd 2063 4ebe fdfb 53be
00000010: 3e81 94bd d903 253d 9437 2bbe deaf 15bd
00000020: 4fa6 bbbd 1599 cabd 7bcb 53bd 4b4f 34be
00000030: 4f28 11bd fc49 e2bd ac36 293d 889e b5bd
00000040: 61c8 b33b 5dd3 35bd 428a d03d 2441 c3bd
00000050: 21dd acbe 9995 e9bd 0eaf 683d 8466 35bd
00000060: 0a22 9fbc 9e1e c63c fe8f 243d f9b3 253d
00000070: 5d4c 3b3e 0c54 e3bb a175 c7bd 704a d53c
00000080: bc39 903c d824 e6bd e3d5 103e 0b81 743d
00000090: 9a5a 87bc 33db 203e 2e4c 7ebe b25c 44be
000000a0: eb8a b03d 82c5 fdbd d259 14be a05a ee3c
000000b0: b826 2dbc 354f 13be 2a80 fdbd 21db 1dbb
000000c0: ebf8 05bd f11d a3be 9fc4 5dbe 908d 90bc
000000d0: ca65 eabd fbbf aabd ceb5 ab3c 0b5d 173e
000000e0: 791f 0a3d 4fe5 2fbd 1510 893d e422 a73d
000000f0: 3a0a 41bc e0e6 f3bd 1d8e 5b3c 3a61 87be
00000100: c02a 2c3e 1244 8f3e 1f8b 6cbe 29b6 82be
00000110: 466c 8e3d 232f 46bd 21c0 2ebe 07d6 c6be
00000120: 5aad ed3d 92a8 7ebd 54b3 eebd 6636 433e
00000130: 64f4 703c 40a8 143d e873 283d 471f 973d
00000140: 4c37 4f3b 7fbd 10be dad7 0a3d c842 9b3d
00000150: cb73 d4bd 43f2 9fbe 1909 18be cf05 eb3b
00000160: 3d53 d1bd 20cd c1bd 435f f9bc dd19 35bc
00000170: f351 d0bd 7928 2e3d d737 c23d a16a c63c
00000180: 47a7 93bd 6423 9e3d d96e 423d 3a5c 3bbd
00000190: f851 ad3d 233e a0bd 8449 29be 6a87 223e
000001a0: 9d8e d9bd 692d 0b3c 78dc 00bc 986b 013e
000001b0: 83b5 093e ffa0 2b3d 4d78 023d b174 e23d
000001c0: 132d c43d d366 86bc acde f03d 37e9 203e
000001d0: b172 0f3e 05e6 00be 74cd c23d 4e58 85bc
000001e0: ca6a c7be 197b 28bc da1a 9f3e 0e53 343e
000001f0: 1b63 a8be ef20 83be c67b c83d 72c9 ad3d
00000200: ea4c f9bd 09b6 fbbd eed3 573e 0994 7d3e
00000210: 5152 ccbd c230 42bd d09b 5ebd 1a06 313e
00000220: 3a00 7d3d 9e2a 29bd 2285 033d 9c9b a23d
00000230: 4670 df3d 3cd6 123e 3ad0 bcbd 5339 023e
00000240: 7492 47be 4927 27bd 3f62 103e 0abb 1fbe
00000250: 21a4 a2bd a831 423e d2b7 1d3d 9fbd 19be
00000260: 6b5a 483c 89e9 063e 26ab 8b3e f68a 30bc
00000270: da52 993d 2000 bf3e 1037 ad3d 51ac 06be
00000280: 9d48 493e 0eb6 38be 1485 603e c3fc 093d
00000290: c020 61be 2d67 2cbe 3560 0dbe 2948 4abd
000002a0: 8976 fdbd fdfc c5bd b1e2 2abc 9112 cd3d
000002b0: cf1d 623e 195c 153e d85b fd3c 535e 95bd
000002c0: ec88 a73c e81b 0fbd 026e 323e c6c4 b4bd
000002d0: 077a 7a3d 22fd 83bd 3400 9c3d af5a 083e
000002e0: bc2d 4bbe f31e 2b3d 96b7 003e b2a6 78be
000002f0: aefa 1f3b 7290 153e 1877 03bd 7ab9 8bbe
00000300: 3c59 023e ab55 a8bd 1e8c 8bbd a054 943d
00000310: d906 63bd 3348 8e3d 1414 773e 60f6 bb3d
00000320: 5311 91bb 5863 6b3e 54de d5bc afce 30be
00000330: 441f 1c3e 8491 e2bd 9c3f 1e3d 0b61 0b3e
00000340: 0e9b a0bd cd57 dc3c b88d 7a3c eb5c 44be
00000350: 6126 efbd 847d ce3c c556 d9bc c4b8 8f3e
00000360: 0aad a5bd 5046 363d 3951 803d 82b3 50bb
00000370: bd0a f33d 2991 473d 9714 6abc b040 7f3d
00000380: 4cd7 88bd 32a8 2a3e db24 32be 57df 28be
00000390: 8a52 863c a885 5bbe c0eb febd 9bfd 07bc
000003a0: 7694 edbd e76f 2b3e 2a48 34be 03cc e43d
000003b0: 98a8 153e 2c19 edbd ba5d 003e 2a43 0a3e
000003c0: fa32 f4bd 6bd8 99bd a685 fd3d 9c48 5a3e
000003d0: 0074 953e 647b d83d 129d c53d 1027 a5bb
000003e0: 782e 86bd 5afc 843d 36ea 65be 7ed3 10be
000003f0: 8512 003c 43e2 a13d 8798 0d3e eb30 c7bc
-0.1559943 -0.112308525 -0.20155 -0.20701595 -0.072512135 0.040286873 -0.1672042 -0.036544673
-0.0916258 -0.09892479 -0.051707726 -0.17608373 -0.035438832 -0.11049268 0.041311905 -0.08868128
0.0054865335 -0.044391025 0.101826206 -0.09533909 -0.33762458 -0.114054866 0.05680757 -0.04428722
-0.01942541 0.024184521 0.040176384 0.04045484 0.18290849 -0.0069375094 -0.09739233 0.026036471
0.017605655 -0.11237496 0.14144091 0.059693377 -0.016522694 0.15708618 -0.24833748 -0.19175985
0.086202465 -0.12391187 -0.14487389 0.029095948 -0.010568313 -0.14385684 -0.12377961 -0.002408691
-0.03270809 -0.3185878 -0.21657036 -0.017645627 -0.11445196 -0.083373986 0.020960715 0.14781587
0.03372142 -0.042943295 0.066925205 0.08160952 -0.011782223 -0.1190927 0.013400582 -0.26441365
0.16813183 0.2798162 -0.23099945 -0.25529602 0.06954245 -0.048384797 -0.17065479 -0.38835165
0.1160533 -0.06217248 -0.11655298 0.1906372 0.014706705 0.03629327 0.04112616 0.073790126
0.0031618653 -0.14134787 0.03389726 0.07581097 -0.10373648 -0.3123952 -0.1484722 0.0071723233
-0.102209546 -0.094629526 -0.030440932 -0.01105353 -0.101718806 0.042519066 0.09483307 0.024220766
-0.0720964 0.07721594 0.047468994 -0.04574225 0.084629 -0.07824352 -0.1653195 0.15871969
-0.106229044 0.008494713 -0.007865064 0.126387 0.13448147 0.041901585 0.03185301 0.11057413
0.0957891 -0.016406452 0.11761221 0.15713964 0.14008595 -0.12587745 0.09511843 -0.016277459
-0.3894866 -0.010283255 0.31075174 0.17609808 -0.3288811 -0.25611064 0.09789233 0.08485688
-0.12172873 -0.1229058 0.21076939 0.24763502 -0.09976638 -0.04740978 -0.054347813 0.17287484
0.061767794 -0.04130041 0.032109387 0.079398364 0.10910086 0.14339536 -0.092194036 0.1271718
-0.19489461 -0.04080895 0.14099978 -0.15598693 -0.07941461 0.18964255 0.038505383 -0.15013741
0.012228589 0.13175024 0.27279013 -0.010775318 0.07486506 0.37304783 0.08457768 -0.13151671
0.19656606 -0.18038198 0.21925765 0.033688318 -0.2198515 -0.16836233 -0.13806231 -0.049385224
-0.123761244 -0.09667394 -0.010430024 0.10013307 0.22081684 0.14585914 0.030927584 -0.072933815
0.020451032 -0.034938723 0.17424777 -0.08826594 0.06115153 -0.064447656 0.07617226 0.13315843
-0.19841665 0.041777562 0.12570032 -0.24282339 0.0024410891 0.14605883 -0.032096 -0.27289945
0.12729353 -0.08219465 -0.068138346 0.072427034 -0.055426452 0.06947365 0.24128753 0.09177852
-0.004427114 0.22987115 -0.02610699 -0.17266344 0.15246302 -0.11062911 0.03863488 0.13611238
-0.07842074 0.026897335 0.015292577 -0.1917607 -0.11677242 0.025206335 -0.026530633 0.28070652
-0.08089645 0.04450065 0.06265492 -0.0031845276 0.118672825 0.04872242 -0.014287136 0.06231755
-0.066816896 0.16665724 -0.17396872 -0.16491447 0.01639678 -0.21437705 -0.124473095 -0.00830021
-0.11600582 0.16741906 -0.17605653 0.11171725 0.14615095 -0.11577067 0.12535754 0.13502184
-0.119237855 -0.075119816 0.12379007 0.21316761 0.29190063 0.1057041 0.096490994 -0.005040057
-0.06551832 0.06493445 -0.22452626 -0.14143178 0.007816915 0.07904484 0.13827716 -0.024315318

conv.3.bias f4 [32]
00000000: 6d2a c23d 1375 e2bd 9030 1c3e 7061 46bd
00000010: bab1 5eb9 903e e2bc b2b6 723c 7126 2bbe
00000020: c2b6 81ba c6f6 f8bd 2ec8 243d c0a3 e8bd
00000030: 85b3 133d a0fb f2bc 6995 42be 23b5 27be
00000040: 2220 143d bf5a eabb 1418 9c3d 116c 503d
00000050: 8648 94bc a815 64bd b08a e7bd af77 5fbd
00000060: 18ca 51be f168 1c3e 362b 21bd 55b1 31bd
00000070: 3251 debd 7a73 1dbb 51e6 36be 9a0a e03b
0.09480748 -0.110574864 0.152529 -0.048432767 -0.00021237778 -0.027617723 0.014814066 -0.16713883
-0.0009896385 -0.12156443 0.04022997 -0.11359358 0.036059875 -0.029661 -0.19002308 -0.16377692
0.036163457 -0.007151931 0.0762178 0.05088431 -0.018100988 -0.055684716 -0.113057494 -0.0545575
-0.20487249 0.15274407 -0.03934785 -0.043382008 -0.108553305 -0.0024025128 -0.17861296 0.0068372013

fc.0.weight f4 [128, 1568]
00000000: b6b6 00bc f157 0a3c dc87 6dbc e91f ebbc
00000010: 75db f93b ac7a f23b 7876 ecbc 6f3c 2ebc
00000020: cce3 643c 11d6 d0ba ba1f a4bc 1176 bfbc
00000030: 23f3 863b 90d2 babc cf14 92bc 2be4 f0ba
00000040: 9aae 713c 68f9 4b3a 1016 d9bc 5f8a c83a
00000050: e762 fbbc 0151 9dbb 913f 47bd 2074 b0bb
00000060: 5dd7 9abc 4555 59bb 9845 bcbc 82c9 c9b9
00000070: 4029 1fbd fcb0 03bd 4710 d7bc bff1 e4bc
00000080: aa5c bbbc ae23 d0bc 5d0d f4bc 8c9a a8bc
00000090: f55f cbbc 3b46 ddbb f73c bbbc 9d81 b2bb
000000a0: 650d 2cbc 128e 98bb 6e55 d5bc 60af b3bc
000000b0: d259 873c 7336 8f3a e0ae 94bc 63c2 97bc
000000c0: 867f e03b 30de 793c 4814 a0bc be5d 8ebc
000000d0: 9337 55bc 3dd0 f9bc f5b3 da3c fa15 85bb
000000e0: 9025 7d3c 67dc c3bc 8567 fabb 2a85 cabc
000000f0: d609 c73a d1ce 233b a23f 9fbc aaa3 5cba
00000100: 4bce 65bb 8d0a 3ebc 1f70 88bb 21ac 0cbd
00000110: a800 fabb 983c 09bd f209 65bc da15 4bbc
00000120: e42f 1fbd 277d 93bc 1cf5 feb6 3e30 eebb
00000130: 5e8c a9bb 67e0 4abc 4c91 4cbc 24c8 3cbd
00000140: 0b90 d2bc 924a dfbc 0eae c83b 2af0 6fbc
00000150: 5ff0 62bd dad4 f1bc 3703 debc 5cfb 96bc
00000160: d41e d4bc ab79 fabc 575f 03bd fa05 cd3c
00000170: cfcd 93bc 2f82 0bbc bd15 98ba 52c9 9c3c
00000180: adb8 21bc 33fb 24bb 7f5b 0dbd 1516 203c
00000190: 95e5 683c e82f be3b 21a3 e2bc b14f f1bc
000001a0: 8262 9fbc ae93 c2bc 0cb1 c03b 7392 963c
000001b0: 9916 7f3c 42b9 8cbb ea09 92bc 9be6 99bc
000001c0: 0d29 afbc a6e0 543c 15c3 18bc 5f6c 65bc
000001d0: 205f 46bd 5fc1 f93b 9c9c 60bc 529c cb3b
000001e0: 9ae7 0bbd f5c5 2e3c 6ef8 e3bc f14b 28bd
000001f0: 54ae 53bc 375b 64bb 079a 5abc eafe c43c
00000200: 2502 40bc e183 1ebc 5c3b 87bc 998c 043c
00000210: 032a 84bc 56eb b7bc 6e94 a5bc d458 08bd
00000220: c495 5fbc a579 403c de2f 9cbc 8f4c c8bb
00000230: 23fa e0bb b3aa 85bb 51e2 49bc e3f5 efbc
00000240: 122e 033c 83e1 b3b9 c1c0 9abc 6bbb b0bc
00000250: cb90 56bd d6c7 1bbd 18b8 f9bc d2ab 89bc
00000260: 2d1b a7bc 5be1 5abd f4dd 1bbc f67b 5abc
00000270: 9f98 c5bc 4b07 8abc 1932 f7bc 57c0 0cbd
00000280: 6edb 68bc 56f4 16bd c566 39bd ca42 aabc
00000290: f9a1 663b 6256 85bc 4920 11bc a656 d2bc
000002a0: ef9e 4dbd 2f29 d0bc fff7 30bb 92d7 05bc
000002b0: b2f7 27bc 2989 a0bb 29b0 4dbb 2b05 04b8
000002c0: e558 d0bb bfbd cfbc 516d 7ebc 5056 22bd
000002d0: c336 a7bc 77a7 4fbb e1c7 c3bc 07b1 86bc
000002e0: 1093 81bc 1c9c 95bc 407a 62bc 6c55 59bd
000002f0: 9dbf 31bd 16ff 27bd c3e6 12bd bb74 bfbc
00000300: ca3b 1ebd 643b 1fbd 4e5e a73b 9042 3cbd
00000310: 46d8 aabc e09c 84bc a595 9cbc d3b5 5dbb
00000320: dcc3 593c c9c4 bdbc 3d36 d5bb 1321 9dbc
00000330: a9af 56bc 8b97 1e3c 2e98 fdbb bea4 4a3c
00000340: 77a0 743b 1810 233c 0a14 093c e929 0fbc
00000350: d106 91bc 4789 5abd 1c30 433b e449 d9bc
00000360: 0523 41bc cb1b 54bd 2a23 f7bb 7174 71bd
00000370: 766c 07bd 49b9 05bd 76d4 0cbc 94b8 44bc
00000380: b3de 5cbd e521 03bd def8 30bd 39d6 963a
00000390: ab32 04bd 7bba efbc f238 bdbc f754 1abd
000003a0: 3db2 80bc e885 c1bc 0fa0 9bbc cb79 c9bb
000003b0: 9a32 aabc 2a02 bfbc e5c7 9bbc 6014 f03b
000003c0: b725 bebb c4b3 54bc a036 feba 0765 463c
000003d0: 1e2f 52bc f933 cbbc 2a1d d9bc b0b3 99bc
000003e0: d861 323c 3e53 a33b 3e8f fcbc 96fa 5cbc
000003f0: 8c9e 383c 32aa 843c 8835 b73b 0155 72bc
-0.007856062 0.008443818 -0.014497723 -0.02870174 0.0076250383 0.0073998775 -0.028865084 -0.010634526
0.013970327 -0.0015932937 -0.02003466 -0.023371728 0.0041183396 -0.022805482 -0.017832188 -0.0018378546
0.014751101 0.0007781 -0.026499778 0.0015300027 -0.030686809 -0.004800916 -0.048644606 -0.005384937
-0.018901521 -0.0033162397 -0.022982404 -0.00038487843 -0.0388577 -0.032151207 -0.026252879 -0.027947305
-0.022871334 -0.025407638 -0.029791528 -0.020581506 -0.02482603 -0.006752757 -0.022856219 -0.00544758
-0.01050124 -0.004655608 -0.026041713 -0.021934211 0.016522322 0.0010926261 -0.018149793 -0.018525308
0.0068511395 0.0152507275 -0.01954092 -0.017378684 -0.013013738 -0.030494804 0.026697138 -0.0040614577
0.01545085 -0.023908807 -0.007641735 -0.0247217 0.0015185426 0.0024995098 -0.019439522 -0.0008416722
-0.0035065587 -0.011599195 -0.0041637565 -0.034343842 -0.0076294728 -0.033505052 -0.013979422 -0.012395347
-0.03886403 -0.018004013 -7.5983244e-06 -0.0072689345 -0.005174204 -0.012382603 -0.012485813 -0.046089306
-0.02570345 -0.027257238 0.0061242646 -0.014644662 -0.055405017 -0.02952044 -0.027101142 -0.018430404
-0.025893606 -0.030575594 -0.032073345 0.025027264 -0.018042473 -0.008514925 -0.0011603158 0.019138966
-0.00987069 -0.002517414 -0.034511086 0.00977089 0.014214893 0.0058040507 -0.027665677 -0.029456945
-0.019456152 -0.02375206 0.0058804806 0.01838038 0.015569353 -0.0042945454 -0.017826993 -0.01878672
-0.02138188 0.0129930135 -0.009323855 -0.014002888 -0.048430562 0.0076219286 -0.013709214 0.006213703
-0.03415642 0.010667314 -0.027828421 -0.04108805 -0.012919981 -0.0034844407 -0.013342387 0.024047334
-0.011719261 -0.009674997 -0.016507797 0.008090162 -0.016133314 -0.022451084 -0.020212378 -0.033287838
-0.013646547 0.011747752 -0.019065794 -0.006112642 -0.006865756 -0.004079187 -0.012322024 -0.029292053
0.0080065895 -0.0003430956 -0.01889074 -0.021573743 -0.05238418 -0.038032375 -0.03048329 -0.016805563
-0.0203987 -0.053437572 -0.009513367 -0.013335219 -0.024120627 -0.01684918 -0.030175256 -0.034363117
-0.014212472 -0.03685411 -0.045264024 -0.0207838 0.0035191758 -0.016276542 -0.008857795 -0.025676083
-0.0502004 -0.025410263 -0.0027003286 -0.008169072 -0.010251926 -0.0048991633 -0.0031385517 -3.1476065e-05
-0.0063582533 -0.025359033 -0.015528993 -0.039633095 -0.020411855 -0.003168551 -0.02389902 -0.016441835
-0.015817195 -0.018262915 -0.013823092 -0.05305998 -0.043395627 -0.041014753 -0.035864603 -0.023371091
-0.038631238 -0.038875 0.0051076775 -0.045961916 -0.02085508 -0.016188085 -0.019114325 -0.00338303
0.013291325 -0.023165124 -0.00650671 -0.01918081 -0.013103404 0.009679685 -0.0077390885 0.012368379
0.003732709 0.0099525675 0.008366594 -0.0087380195 -0.017703446 -0.053353574 0.0029783314 -0.026524492
-0.011788134 -0.051784318 -0.0075420337 -0.058948938 -0.03306242 -0.032647405 -0.0085955765 -0.0120068975
-0.05392332 -0.032014746 -0.04320609 0.0011507935 -0.032274883 -0.029263726 -0.023098443 -0.037678685
-0.01570999 -0.023623422 -0.01899722 -0.006148552 -0.020776082 -0.023316462 -0.019016216 0.0073266476
-0.005802836 -0.012982313 -0.0019394942 0.012109048 -0.012828616 -0.024805056 -0.026503164 -0.01876244
0.010887586 0.0049842885 -0.030830022 -0.013487479 0.011268269 0.016194437 0.005591098 -0.014790774

fc.0.bias f4 [128]
00000000: 4bea debc 6861 28bc 401b 7d3d 07ab 0a3c
00000010: 3b87 85ba c3db 90ba ec29 083d d61f 813d
00000020: 10bf 18bc a38b 78bc 9295 913a 354b 503c
00000030: 9f9c 4e3d a5d9 27bd c990 8cbc f3c9 0fbb
00000040: 72e0 7c3c 1a1d 543c d007 a9bc 23e2 8dbc
00000050: 2a47 e4bc 4b3f 8c3b 52db 90bc c9db 28bd
00000060: c1f8 d5bb 8530 9a3c d0a8 ff3b 5670 60bc
00000070: 4e8f 7b3b b594 debc 5f37 e33c 270b 3b3d
00000080: 9b8c 43bd f7df a2bc ea33 83bc e5ef c63c
00000090: c718 3dbb 0898 313c 4bae 22bc 8bb0 4a3d
000000a0: 42c5 bfbc 4081 353d bf65 a5bc 4cfb 243d
000000b0: 1edf 0e3c 2856 a9bb 2117 603c ff0f 143d
000000c0: 59dd 9dbc 4b75 ee3c 5e3e d6bc e9f1 2cbc
000000d0: 40cc 1f3d b20c 433a 3351 643b 50c6 f83c
000000e0: 0473 913c 0668 243d 922f 613c 217a 633c
000000f0: abc2 19bd 10e6 b539 8431 a6bc 9253 6dbc
00000100: 4fad a63c 4fda 8fbb b26c a7bb 893e 033d
00000110: 75dc 933d 07a5 c63c 5c83 14bd ba50 913b
00000120: 79e9 263d 5d27 323d 18a6 bcbc ca47 20bc
00000130: c182 d5bc 7895 b13c 28ea 883d 866e 963d
00000140: 7d20 ddbc e7e0 723c ba8f ea3c 2460 9fbb
00000150: 0fb9 093c 6106 d7bc d6c3 ba3b 5e9f 703c
00000160: 3471 853c 83c3 e5bb 9e80 f3bc 5df0 49bd
00000170: 0368 783c b1da 873c 38e5 443c f66e e6bb
00000180: 5ef4 823d 94b0 8fbb ea79 383d 1156 97bb
00000190: 7247 1cbc 783b bd3c 6593 6bbc 3403 dabb
000001a0: e564 b43c c817 2dbd fa7c 8e3c 35b6 2f3d
000001b0: 92f2 8f3c d51f 26bc 95f1 303d 1363 d2bc
000001c0: 8c37 09bd 7661 2c3c b8d8 153d 301b 733c
000001d0: 0881 673c 3ed4 56b9 1a93 52bd 5ac8 523d
000001e0: b06e 093d 424a 3c3d 0012 efbc 8be4 01bd
000001f0: 2f78 6c3c 4a61 34bc 4b12 943d fccd 983d
-0.027211329 -0.01027713 0.061793566 0.008463628 -0.0010187397 -0.0011051822 0.033243105 0.063049
-0.009322897 -0.015170011 0.0011107197 0.012713243 0.050442334 -0.040979046 -0.017158883 -0.002194044
0.015434371 0.0129463915 -0.020633608 -0.017319744 -0.027865965 0.004280006 -0.017682705 -0.04122523
-0.006529898 0.018821964 0.0078021064 -0.013698658 0.0038384977 -0.027170518 0.027736364 0.045664933
-0.047741514 -0.019882185 -0.016015965 0.024284313 -0.002885388 0.01083947 -0.00992925 0.04948477
-0.02340949 0.044312716 -0.020190118 0.040278718 0.0087201875 -0.0051677413 0.013677389 0.036148068
-0.019270586 0.029108664 -0.026152786 -0.010555723 0.039013147 0.00074405514 0.0034838438 0.030368
0.017755039 0.040138267 0.013744252 0.013884098 -0.037539165 0.0003469442 -0.020287283 -0.014485257
0.020346312 -0.004390038 -0.005109393 0.03204206 0.07219783 0.024248613 -0.036258087 0.004434672
0.04075 0.04349457 -0.023028418 -0.009782741 -0.026063325 0.021677718 0.06685287 0.073452994
-0.02699303 0.014824129 0.028632987 -0.004863756 0.008405938 -0.026248159 0.005699615 0.014686434
0.016289331 -0.007011832 -0.029724415 -0.049301494 0.015161517 0.016583772 0.012017541 -0.0070322705
0.063942656 -0.0043850634 0.04503814 -0.004618414 -0.009538518 0.023099646 -0.014378403 -0.006653214
0.022020767 -0.042259008 0.017393578 0.042898376 0.017571721 -0.010139425 0.04319914 -0.025682008
-0.03350024 0.010521283 0.036583632 0.014838025 0.014129885 -0.00020487697 -0.05140982 0.0514606
0.033552825 0.045969255 -0.029183388 -0.031712096 0.014432951 -0.011009524 0.072300516 0.074611634

fc.2.weight f4 [10, 128]
00000000: 1be9 5ebb bf66 763d 51d1 aa3d e35e a0bd
00000010: ed34 a3bd 0a6c 463d 9ff4 41be 8480 513e
00000020: cefb 97bd 9426 7e3c 519a 82bd 28e8 c73d
00000030: 4eb8 1b3d 3eba 983c 4992 bb3c 3ef7 41bd
00000040: 000d 163d 698b 373d c9c9 723d f658 df3d
00000050: 81b0 36be 63dd 58bb b309 45bb 6710 ee3c
00000060: 651f 6fbe 971c dcbd cc9d a73d 873e 833d
00000070: 7ab8 0b3d f2f8 a73d dc8f a03d faed d03d
00000080: 32ed e2bc 2d19 583d 53af 853d 2c69 8cbc
00000090: 29d6 1abe b136 4ebd d5bb 9fbb 3051 58be
000000a0: a503 5bbd d06a 443d ccf0 dcbc c6db 05bb
000000b0: fb64 aa3c 03b2 83bc 7e7d 713d a8b5 833d
000000c0: 0198 01ba 0e5e 233a ca89 c2bc f4ec 563d
000000d0: 49cf 8c3d 8a41 003d 4300 36bd d7b0 f1bc
000000e0: 6a23 8f3d 64cd 493d 3bc6 15be bca7 26be
000000f0: 9c7e 6e3d a84e c03d 59a8 0a3d 8ceb 10be
00000100: c636 a43d 6d77 923d 7cb4 0dbd a341 7a3d
00000110: bc5b 183e e104 7abd 56ca c3bd 5ce5 1d3e
00000120: 5919 a93b a456 bc3d 698f a2bd 8a7f 5dbc
00000130: e135 503c 3bef cabd e9a9 b0bd 06ab af3c
00000140: a777 c6bb c3b7 09bc 944a b53c dfa3 cb3c
00000150: 8314 49bd b694 233c 3299 03be ec4b a03c
00000160: de74 8dbd f8be 35bb 9de3 03bd eeb9 563d
00000170: f129 9d3d c73d 35be 1cb6 8fbd 15fc 8dbd
00000180: 9db7 b93d 4888 0f3d dd5a 32bd b01c 873d
00000190: 4232 153d b352 ea3d fa01 e13d b64c 35be
000001a0: 6059 6a3d 458b e9bc fd3a 84bd 634e 69bd
000001b0: 7452 873d d0e5 a03d 4b79 77bd aa14 623d
000001c0: 0f4b 423d d6ae 043e 6d99 f0bc df4a 06be
000001d0: 3f4a 873d 7eac 67be f791 23be 13fe 02bd
000001e0: cdf5 263c ff4a 193d a9d2 8d3c b3e1 5abe
000001f0: bad2 5cbe 1c89 95bd bb1a 573d 1b80 513c
00000200: 340b 333d 6b32 c8bd cf40 383e 4fbf 1e3d
00000210: 5ddd b8bd 816d 283a 8144 d13d 88f5 cd3d
00000220: 1f7b 60bd 3e74 7ebd 4b07 b13d 450b ef3d
00000230: ef11 f03d 7d7b 77bc 2421 41b9 0cd6 0abd
00000240: 0e06 e8bc bc09 f13b 43cd 483d 8063 3fbe
00000250: be3a eb3d ac7d 65be 4e5b b8bd 6869 fd3a
00000260: d67d 1e3e 8c00 c73d fc5d e7bd f993 b43d
00000270: 527c f1bc e837 74be e8fb 6abe c4f0 f33d
00000280: 1b16 583d 32a2 84bd 5862 c3bd 396c 2fbe
00000290: b20a d73c c906 75bd 1385 0fbc 6975 27be
000002a0: 8bad 293c 36e3 37be 9cf2 4c3d dc59 853d
000002b0: 76d5 de3d 320b 0f3c f703 d6bb f545 8abd
000002c0: 6489 86bd eeaf 71bb 6c0a 88bd 5792 80bd
000002d0: b363 01be c19e 9cbd 49c4 5ebd 9188 2fbd
000002e0: e3ae 563c 421b 32bd 1296 8abe 253b 3dbe
000002f0: dd95 c53d 4d02 02be 2efc 95bc fecd 23be
00000300: 07b3 613d 5497 9cbd 05a2 133d 5a1a b2bd
00000310: ffcd 74be fe16 a33d 1328 d93d 233d 3f3e
00000320: da92 75be 0f4f 9d3d d554 4c3d 6be8 5cbe
00000330: 4b95 92bd 52df a9bd b055 4dbe f96f 90bd
00000340: 71fc d9bd a180 433d d881 973b 9a00 6ebd
00000350: e17a dabd 4d45 37bd 479b 87be 4596 64bb
00000360: e484 80bd 4a1a 013e 7775 1abe 3999 fe3c
00000370: e336 0fbe dbe4 85be 5699 a2be 1833 133d
00000380: 9300 94bc 6c07 a1bd c8a3 62be 1a8d 42bc
00000390: a669 dc3c 6a08 d2bd bd30 df3b dd87 a33d
000003a0: a83a c93d f27d 9dbb 222f 093e 1b3b 5a3d
000003b0: 39f2 92bc 0006 783d 6a91 39be 7fb8 193c
000003c0: e337 9d3d 840d 40bd d10b 1abe 2da0 b7bc
000003d0: 3d7a 553c fd17 84be d7f8 0c3e 56a9 633c
000003e0: d3c1 6e3d 6c94 ff3d f560 8ebd 50ce 60be
000003f0: 5a53 1b3e 5a25 95bd 3a0a a9be 282c 113d
-0.0034013453 0.06015658 0.08340705 -0.07830598 -0.07969079 0.048442878 -0.18940972 0.20459181
-0.07421075 0.015512127 -0.0637709 0.09761077 0.038017564 0.018643495 0.022896903 -0.04735493
0.03663349 0.044810686 0.05927447 0.1090564 -0.17840768 -0.003309094 -0.0030065596 0.029060556
-0.2335182 -0.107476406 0.08184394 0.064084105 0.034111477 0.082017794 0.07839939 0.102016404
-0.027700994 0.052758384 0.06527581 -0.017139994 -0.15120758 -0.050345127 -0.0048746862 -0.2112472
-0.053470273 0.047953427 -0.02697029 -0.0020425185 0.020800104 -0.016076094 0.05895757 0.064311326
-0.000494361 0.0006231972 -0.023747344 0.05247207 0.06875474 0.031312503 -0.044433843 -0.02950327
0.069891766 0.04926814 -0.146264 -0.16274923 0.058226213 0.093900025 0.033851955 -0.14152354
0.0801826 0.07151685 -0.03459595 0.061097752 0.14878744 -0.06103981 -0.09560077 0.15419525
0.0051604924 0.09196213 -0.079375096 -0.013519177 0.012708158 -0.09908911 -0.08626158 0.021443855
-0.006056744 -0.008405629 0.022130288 0.024858413 -0.049091827 0.009984186 -0.12851408 0.019567452
-0.06907056 -0.0027732234 -0.03219949 0.05242341 0.07674015 -0.17699347 -0.070171565 -0.069328465
0.090682246 0.035042077 -0.043543685 0.065972686 0.036424883 0.11441555 0.10986705 -0.17705044
0.05721414 -0.028508792 -0.064565636 -0.05695952 0.066075236 0.07856333 -0.06041841 0.055195488
0.047434863 0.1295732 -0.029370034 -0.13114499 0.06605958 -0.22624394 -0.1597365 -0.031980585
0.010190439 0.037425037 0.017312365 -0.2137516 -0.21564761 -0.07301542 0.052515727 0.01278689
0.043711856 -0.097752415 0.17993473 0.038756665 -0.09026597 0.0006425009 0.10218144 0.10056597
-0.054804917 -0.062122576 0.08643969 0.11672071 0.117221706 -0.0151051255 -0.0001841826 -0.033895537
-0.0283232 0.0073558968 0.049023878 -0.186903 0.114858136 -0.22411221 -0.0900179 0.0019333782
0.1547769 0.09716901 -0.11297223 0.08817286 -0.029478226 -0.23849452 -0.22947657 0.11911157
0.052755456 -0.06476249 -0.09540242 -0.17131127 0.026250217 -0.059820924 -0.008759755 -0.16353382
0.010356317 -0.17957768 0.050036058 0.0651128 0.10880558 0.0087306965 -0.0065312344 -0.067516245
-0.06569174 -0.0036878544 -0.06642613 -0.06277912 -0.12635688 -0.076474674 -0.05438641 -0.04285485
0.01310322 -0.043483026 -0.2706762 -0.18479593 0.09647725 -0.1269619 -0.018308725 -0.15996549
0.055102374 -0.07646051 0.036043186 -0.086964324 -0.23906706 0.0796337 0.10603347 0.18675666
-0.239818 0.07681095 0.04988559 -0.21573035 -0.071573816 -0.08294548 -0.20052218 -0.07052607
-0.106438525 0.047730092 0.004623633 -0.058106042 -0.106679685 -0.044743825 -0.26485655 -0.0034879607
-0.06275347 0.12607685 -0.15083872 0.031078922 -0.13985781 -0.26151165 -0.3175761 0.0359374
-0.01806668 -0.07862744 -0.2213279 -0.011874462 0.026905846 -0.10255511 0.00681123 0.07984898
0.09825641 -0.0048062736 0.13396886 0.053279024 -0.017937766 0.060552597 -0.18121877 0.009382366
0.07676675 -0.04688789 -0.1504357 -0.022415245 0.013029632 -0.25799552 0.137668 0.013895353
0.058290314 0.12479481 -0.06952087 -0.21953702 0.15168515 -0.07282515 -0.33015615 0.0354425

fc.2.bias f4 [10]
00000000: 540a 48bd 3f31 043d 6268 a73d d0f4 0abd
00000010: 28a7 cbbc 9afd 523d fe6f fabc a5f1 d43d
00000020: 863e 9e3d adb6 2abd
-0.048837975 0.032273527 0.08174206 -0.033924878 -0.02485998 0.051511385 -0.03057098 0.103976525
0.07726769 -0.04167812
