L4T4 - Pytorch for CNNs/L4304T4 - Sun/digit_model.pth (torch, 831429 bytes, 8 tensors)

conv.0.weight f4 [16, 1, 3, 3]
000000 64 a4 fd bd 39 84 5b 3e e8 ee 3c 3d 08 0d 6b be
       -0.12384871 0.21437158 0.046126276 -0.2295419
000010 62 d4 01 3f c9 e3 03 3f 77 01 d0 3e ed 26 c0 3e
       0.50714695 0.5151945 0.40626118 0.37529698
000020 79 14 20 3e 58 0f 9b be 88 bc 7a 3d c8 d6 7e 3d
       0.1563281 -0.30285144 0.061214954 0.06221655
000030 ec a7 93 3d e0 63 21 3d 88 cd 41 be c0 e5 46 3d
       0.07209763 0.03940189 -0.1892606 0.04855895
000040 f0 c2 b9 bd c0 5c a7 bd 10 9c 6f 3e 2e 37 23 be
       -0.090703845 -0.081719875 0.23399377 -0.15939018
000050 82 3a 43 bf 3e 9a cb 3e 63 c7 e0 3e 2a e5 dd be
       -0.7626115 0.39766115 0.4390212 -0.433389
000060 fb c2 4c 3e cf b2 e4 3e 7d 64 b2 3e 2a 58 fc 3b
       0.19996254 0.4466767 0.3484229 0.0077009397
000070 95 7e 64 bd 95 a9 d7 be 27 d6 90 3e 03 d5 a5 be
       -0.05578478 -0.42121568 0.28288385 -0.32389078
000080 3c 0b 6c be d7 c8 5a be 4e 63 f1 be 06 3a 86 3d
       -0.2305116 -0.21365677 -0.47146076 0.06554036
000090 83 43 35 3e b8 7a b1 bd f1 1e 1e 3e e4 69 14 3e
       0.17701535 -0.08665985 0.1544149 0.14493519
0000a0 b6 e4 88 bc e9 a4 02 3f 63 d3 9f be a3 35 51 bd
       -0.01671062 0.5103288 -0.31215963 -0.051076543
0000b0 1f cd 8c 3e 16 7b d5 3e 48 d1 7f 3d d8 67 2b be
       0.27500245 0.4169547 0.062455446 -0.16738832
0000c0 25 4c e3 3d 0d 4b e4 3e 21 9f b9 3e 50 7e 4a bd
       0.11098508 0.4458851 0.36254218 -0.049436867
0000d0 12 ea ca 3e 18 f3 4a 3e a9 f9 ce 3d 4a dd 08 3f
       0.39631706 0.19819295 0.10106213 0.5346266
0000e0 84 93 e9 3e b3 92 f8 3e bb b4 af bc 63 09 69 bd
       0.45620358 0.48549423 -0.021448484 -0.056893717
0000f0 94 42 e8 bd 41 79 0c bf ea 30 21 be db 8a 91 be
       -0.11340824 -0.5487252 -0.15741315 -0.2842625
000100 07 ec 42 3e e4 27 07 bd a8 55 d9 be f3 61 d0 3d
       0.1903535 -0.032997027 -0.42448163 0.10174932
000110 8c ec fc 3d 93 97 bd be 33 bf 92 be 5b 29 4b 3c
       0.12349805 -0.37029704 -0.28661498 0.012399997
000120 47 a5 51 3e f1 df 01 3f 84 f2 af 3e 22 45 cf 3e
       0.20473205 0.5073233 0.34364712 0.40482432
000130 3f ae 8a 3e fe 37 95 be a5 55 86 3e 16 4b 6e 3e
       0.27086064 -0.2914428 0.26237217 0.2327083
000140 49 f3 0c bf 49 57 bf 3e d3 bb 50 3e 20 e1 3e 3e
       -0.55058724 0.3737128 0.20384149 0.18640566
000150 40 6f 6a 3e c5 0b cd 3e 4e 3b 96 3e 05 af 8f 3c
       0.22894001 0.40048042 0.2934212 0.01753951
000160 64 d2 c0 3d ca f6 a9 3e 73 75 b4 be ea 91 2b bf
       0.09415129 0.33196098 -0.35245857 -0.6701952
000170 1e d6 ed be bb 9d a2 3e a0 ff 6d 3e 51 9e 97 3d
       -0.4645242 0.31760964 0.23242044 0.07403243
000180 a7 5f 01 3f 84 f0 17 3e de b5 f1 3e 6b 9d 1a 3e
       0.5053658 0.14837843 0.47209066 0.15099113
000190 7b ce 2a bd 48 c8 bb 3d c8 2f 54 be f7 30 ca 3e
       -0.04170082 0.0916906 -0.20721352 0.39490482
0001a0 64 a5 d0 3e 85 1c f7 3d 41 b9 cb 3e 59 73 ff 3d
       0.40751183 0.120659865 0.39789775 0.12473173
0001b0 74 b5 12 bf d5 d7 99 be 95 8e 92 3e 25 c4 d6 3c
       -0.57308125 -0.3004748 0.28624406 0.026216576
0001c0 3c 99 fd 3e e0 8f c0 bc 9f 5b 11 3f 5a 80 f0 3e
       0.4953097 -0.023506105 0.5678043 0.46972924
0001d0 d5 00 32 3e 86 fc a0 be ca 5b 2f bf 40 d1 eb be
       0.1738313 -0.3144266 -0.68499434 -0.46058083
0001e0 00 de fa be a7 13 02 bd f0 27 5b 3e 4b 67 81 bd
       -0.48997498 -0.031757023 0.21401954 -0.0631853
0001f0 49 62 c5 3d 47 78 f3 3e 56 e7 8b be f0 ed fa 3c
       0.09637887 0.47552702 -0.27324933 0.030631036
000200 93 af 90 be ab d3 86 be 31 21 36 be ec b6 4c 3c
       -0.28258952 -0.26333365 -0.17786099 0.012494784
000210 79 e0 fc 3c b7 08 1b 3d f7 49 ce bd f3 26 eb 3e
       0.030868756 0.037850108 -0.100727014 0.45928153
000220 6d 13 b4 3e f9 27 38 3e db 56 49 3e 8e d9 01 3f
       0.3517107 0.17983998 0.19662039 0.5072259
000230 8d 5c 0d 3c 50 1f fc 3d 93 a2 c3 3e e9 27 42 3e
       0.008628023 0.1231066 0.38209972 0.18960537

conv.0.bias f4 [16]
000000 8b 62 09 be c7 8a 82 be 4f e2 19 3e be 97 b1 3e
       -0.13416497 -0.25496504 0.15027736 0.34686083
000010 3c ad 32 3e 58 8a 04 bd 89 92 22 bb 9d c8 92 3e
       0.17448896 -0.032358497 -0.002480658 0.2866868
000020 68 53 97 bc fd a2 97 3d 76 72 68 3c 19 36 0c bd
       -0.018472388 0.074041344 0.014187446 -0.03423128
000030 68 02 b0 bd ad 79 a0 3e 68 2a e9 bd 53 1a b5 bc
       -0.08594209 0.3134283 -0.113850415 -0.022107279

conv.3.weight f4 [32, 16, 3, 3]
000000 7e cf e1 3c ac 80 1c 3d e8 73 82 3d 10 51 91 bb
       0.02756476 0.03820865 0.063697636 -0.004434712
000010 e0 b0 e5 bc 3c c5 8b 3d 7a 5b 82 be b7 e8 88 bd
       -0.028038442 0.06824729 -0.25460416 -0.06685012
000020 cf 1a 0d 3e 1e c5 44 bd 64 9d a7 bc ee ba 2f bd
       0.13779758 -0.048039548 -0.020460792 -0.04290288
000030 e5 04 a0 3d 83 27 60 bd 4b d5 1f bd fb 6f 79 bd
       0.078134336 -0.05472518 -0.03902177 -0.06089781
000040 a0 cc 49 bc 9f 4b 9b bd c3 1f 05 3e 38 c7 c1 3d
       -0.012316853 -0.07582783 0.13000397 0.09461826
000050 d7 5b d3 3c b5 6a 80 bc 54 54 45 38 3f 5b a7 bc
       0.025800629 -0.015675882 4.7046997e-05 -0.020429252
000060 d3 c9 05 be 82 6a eb bc 61 82 82 bd 7b eb a6 bc
       -0.13065271 -0.02873731 -0.06372524 -0.020375958
000070 c4 c9 06 be 22 db e1 bd 4f d5 ad bc f4 9e 9d bc
       -0.13162905 -0.110281244 -0.021219878 -0.019240834
000080 8f f6 00 3d 13 9c 9b 3d f9 d6 44 3c 35 78 a2 bd
       0.031485137 0.07598128 0.012014144 -0.07933084
000090 67 17 8c 3c 72 46 0d bd 01 6e 5b 3c ab 65 d3 bc
       0.017101003 -0.03449101 0.013392926 -0.025805315
0000a0 44 a2 0e bd 32 1f e8 3d 92 59 cb bd be 30 35 3d
       -0.034822717 0.11334075 -0.099291936 0.044235937
0000b0 ed 0c 5a 3d d1 de 3f 3d 0e 80 39 3b 4c a8 c9 3c
       0.053234983 0.046843354 0.0028305086 0.024616383
0000c0 92 40 7d 3d 8b 7b 8c bd 96 b2 03 3d 51 6a 05 be
       0.061829157 -0.068595015 0.032152735 -0.13028838
0000d0 0a dc cf bd a4 1d 57 3d b7 df c4 3c 96 13 15 bc
       -0.10149391 0.052518502 0.024032457 -0.009098908
0000e0 e8 cd 18 3d 27 2b 05 3e a8 c5 85 3d 29 ba 0b 3d
       0.037305743 0.13004743 0.065318406 0.034113083
0000f0 54 4f a4 bc 44 c9 97 bd e6 d9 6f bd 5e 34 2c bd
       -0.020057358 -0.07411435 -0.058557414 -0.04204213
000100 39 15 26 bd 9a 6c 1a 3d e5 16 86 bd cc c9 43 bd
       -0.040547583 0.037701227 -0.065473355 -0.04779987
000110 63 29 4f bc 3d 48 ee bc f6 a0 0d bd 50 db 9e bc
       -0.012644145 -0.02908718 -0.034577332 -0.019391686
000120 37 f0 18 be f3 87 67 bd 39 ff 4b bd 22 e1 85 3c
       -0.14935385 -0.056526136 -0.049803946 0.016342703
000130 fa c5 52 3c 06 5c 36 be d8 e8 9c 3a 96 b7 9d bc
       0.012864584 -0.17808542 0.0011971248 -0.01925258
000140 16 01 a8 3d 92 e1 9b bd 16 a0 c4 bc 4c 89 54 bd
       0.08203332 -0.076113835 -0.024002116 -0.05188875
000150 b4 ee ea 3d 66 b3 bc bc 4a 2a dd 3c 0e d0 b5 bd
       0.1147131 -0.023034763 0.026997704 -0.08877574
000160 3b 3f 28 3d dc 8e 14 bd 01 92 90 3e 5c 01 03 3e
       0.041075926 -0.036269054 0.28236392 0.12793487
000170 ef 9f d7 3d 90 f0 19 3e 60 43 09 3d 1f 9d 60 bb
       0.10528552 0.15033174 0.03351152 -0.003427334
000180 f3 bb c0 bd d1 b6 05 be da 78 fc bd 42 1f c2 3d
       -0.094108485 -0.1305802 -0.12327738 0.09478618
000190 1c 00 c0 3d 3e 66 94 bd 6b a3 04 bd e5 da ce bd
       0.09375021 -0.07246064 -0.03238241 -0.101003446
0001a0 b8 65 83 3d e9 cb 55 be a0 ab 49 3d 2a 28 f1 3d
       0.06415886 -0.20878567 0.04923594 0.11775239
0001b0 b2 d5 a6 3d 5e 59 43 3d 39 de c4 3d 9a 01 bc 3d
       0.08146228 0.04769265 0.09612698 0.09179993
0001c0 40 08 72 3c 01 21 4f bc 52 ad 96 be 3a d1 23 3d
       0.014772475 -0.012642146 -0.29429108 0.039994456
0001d0 f3 81 11 3c 77 ed bc 3d 8e cc 11 3d 0b d0 d1 bd
       0.00888108 0.0922498 0.03559547 -0.10244759
0001e0 5b a3 79 3c e6 b9 18 be cf e1 03 be 85 ac 7c 3d
       0.015236701 -0.14914665 -0.12879108 0.061687965
0001f0 bf 95 f0 3d bb a6 81 bb a2 de 0a 3d 11 40 9f bd
       0.11747312 -0.0039566434 0.033903725 -0.077758916
000200 8f 70 c7 bd f8 a2 97 bc c0 d5 9d ba 21 df 8f 3d
       -0.09738266 -0.018510327 -0.0012041852 0.0702498
000210 ce 18 32 bd f8 2c df bc 4e e0 de bc e9 2f 3d bd
       -0.043480687 -0.027243122 -0.027206566 -0.04618827
000220 87 76 8b bd c9 9c 6e 3d ad 45 71 3d db a5 77 3c
       -0.06809717 0.05825499 0.05890434 0.015115227
000230 64 3a 66 bc 23 f9 fa bd b0 16 1f bb 02 08 be bc
       -0.014052007 -0.1225455 -0.0024274997 -0.023197178
000240 59 7d dc bd 0b 95 f7 bc 9a 76 03 3e d6 ff 69 be
       -0.10766096 -0.030222436 0.12838212 -0.228515
000250 f7 ff 31 3d 93 a2 ec 3d 09 5c b6 3c eb be 01 3e
       0.043456998 0.11554446 0.022260683 0.12670486
000260 41 c5 82 3d 50 55 20 bd 32 f7 5f 3d 54 2d d8 3c
       0.063852794 -0.03914386 0.054679103 0.026388802
000270 b8 99 49 bd 9c 6c af 3c 00 45 f8 3a 42 84 5a 3d
       -0.049218863 0.021414094 0.0018941462 0.053348787
000280 4e 83 22 bd 4c 0d f2 3c 93 95 04 be 76 ec b0 bd
       -0.039676003 0.029547356 -0.12947683 -0.08638851
000290 b7 d4 e7 bc 65 fe e2 39 77 24 a5 bd c3 ca 61 3d
       -0.028299673 0.00043295618 -0.08063596 0.05512501
0002a0 b3 24 a3 bd 9a 53 2c bc 7c 7b 55 3d 1b 28 93 3d
       -0.07965984 -0.010517979 0.052119717 0.07185384
0002b0 70 58 58 3d 53 a2 ff bc a0 41 a9 3d 76 b2 8a bb
       0.052818716 -0.031205332 0.0826447 -0.0042327
0002c0 34 8a 71 bb 77 e2 b0 3d d7 f2 46 be 0f a4 b8 3c
       -0.0036856057 0.08636945 -0.19428574 0.022539167
0002d0 cf 07 0b be 2b 6e 38 3d 74 aa b6 3d e6 64 df bd
       -0.13577197 0.04502694 0.0891923 -0.10907917
0002e0 75 6c df 3d 41 4f a9 bc 8f 23 bf 3d 0e ed 6d 3d
       0.109093584 -0.020667674 0.09332954 0.0580874
0002f0 bc 3e a9 bd 1f 48 93 bd bc f2 e7 bd c3 d6 ca 3d
       -0.08263919 -0.071914904 -0.11325595 0.09904244
000300 4f b2 41 be 07 e5 1d 3d 30 2e 08 3e bc b8 88 bd
       -0.18915676 0.038548496 0.13298869 -0.0667586
000310 78 15 25 3e 4c 3e 87 3d 27 9e 76 bc d6 fa 1f be
       0.16121471 0.06603679 -0.015052355 -0.1562303
000320 8a e4 9a 3d 48 38 75 bd 59 75 44 be 07 cc 41 3d
       0.075631216 -0.059868127 -0.1918539 0.047313716
000330 f0 a1 28 be ac 3e b1 bd bd ed b3 bc 4b f2 51 bd
       -0.16468024 -0.08654532 -0.021963948 -0.05125646
000340 d5 1c 81 bd 76 9d 90 bd 0d 4d cb bc c5 99 b4 3d
       -0.063043274 -0.07061283 -0.024817014 0.08818392
000350 b1 2c fd bc 5e 7c d7 3d 41 db 58 3d ce 0d 0d 3c
       -0.0309051 0.10521768 0.05294347 0.008609248
000360 46 4b c1 bd 5c 0f 3a be fa 0b 21 3e 99 f3 1b be
       -0.094381854 -0.18169922 0.15727225 -0.15229644
000370 73 9a c0 bc 70 01 56 3e 27 79 72 be ad 2a 67 3b
       -0.023511147 0.20898986 -0.23679028 0.003527324
000380 51 36 06 3e c5 7f f7 bd af 6f a5 bb 04 0b 74 3d
       0.13106658 -0.12084917 -0.005048714 0.059580818
000390 7c 85 c4 bd 6f 85 8d 3d 58 d6 aa 3d 51 65 f3 bd
       -0.095957726 0.06910216 0.08341664 -0.11884559
0003a0 4a 65 5d 3d bf d8 ba 3d 22 c0 58 be cf 28 48 3b
       0.054051675 0.09123372 -0.21167043 0.0030541902
0003b0 04 99 f0 bc b0 0b 36 be c1 4e f8 bd 9e a2 0a be
       -0.029369839 -0.17777896 -0.12124396 -0.13538596
0003c0 40 2c 90 bd e9 ae c4 bd 59 73 0f be e1 25 a0 bd
       -0.0703969 -0.09603674 -0.14008845 -0.07819725
0003d0 47 17 a1 bd b9 6d ba 3d ea 73 3f be 20 c2 cc 3c
       -0.07865768 0.09102959 -0.18696561 0.02499491
0003e0 ee b4 fe 3d d9 5e c3 bc e6 2d 66 3d 3e 28 90 3d
       0.12436853 -0.023848938 0.056196116 0.070389256
0003f0 db a9 0b be 2e 17 89 bc 22 ad ec 3d 7a f5 00 be
       -0.13639013 -0.016734686 0.1155646 -0.12593642

conv.3.bias f4 [32]
000000 f1 52 91 bd 71 5c d8 bd 21 57 e6 bd e8 90 7a 3d
       -0.07095898 -0.10564507 -0.11247087 0.06117335
000010 7a f8 f3 3c 52 ab f2 bd 42 af 08 3c 27 3b 27 3d
       0.029781569 -0.11849083 0.008342566 0.040827896
000020 9f ca 58 3d 95 ed 86 bd 16 ed c8 bd b0 25 d0 bd
       0.05292761 -0.06588284 -0.098108456 -0.10163438
000030 4e 21 64 bc 54 7e ca 3c aa de 95 3c 32 e2 3c bd
       -0.013923956 0.024718441 0.018294651 -0.046114154
000040 97 d1 10 bd 84 3a f9 bd b5 25 eb bd 8a a9 06 3a
       -0.03535613 -0.12169364 -0.114818014 0.00051369576
000050 8c 9c 13 3d 2e 4d 61 bc 82 c3 67 bd 6a 67 03 bd
       0.036037967 -0.013751311 -0.056582935 -0.032081045
000060 1b e0 a9 bd ca c1 4a bc ee e4 f1 bc 64 ad 4b bd
       -0.08294698 -0.0123753045 -0.029528107 -0.049725905
000070 f8 70 b9 3a 94 cc a0 bd 07 3a e6 bc 1c 81 55 3c
       0.0014148047 -0.0785152 -0.028103841 0.01303127

fc.0.weight f4 [128, 1568]
000000 ac 12 00 bd ba 1a 35 bc 88 4c 64 bd 77 a7 f7 bc
       -0.031267807 -0.011053735 -0.05573705 -0.03023122
000010 fb d6 48 bd 22 96 8d 3c 65 25 c4 3c 3c 05 36 bd
       -0.049033146 0.017283503 0.023943612 -0.044438586
000020 30 27 bf 3b 1e ad 62 3c e1 0e ce bc ad 2f 20 bc
       0.005833529 0.01383522 -0.02515358 -0.009776992
000030 d7 8e 01 bd d4 b3 77 bd 15 16 74 bc 94 31 33 bd
       -0.031630363 -0.06047423 -0.014897843 -0.043748453
000040 ac 36 41 bd d3 2b 8c bd 93 54 24 3a fb 03 a0 bc
       -0.04717128 -0.06844296 0.0006268706 -0.019533148
000050 63 62 5d bc a1 1e 46 3c 73 ca ef bb dc bd 8e bb
       -0.013512227 0.012092263 -0.007317835 -0.004356129
000060 02 b0 66 bc b6 d4 91 bc fc 4a 2a bc ef 84 f1 3c
       -0.0140800495 -0.017801624 -0.010393854 0.029482333
000070 5f 8e 07 bd 2a 1f 2f bc 20 d2 86 3d 7f 4b 28 3d
       -0.03309476 -0.010688582 0.06583047 0.041087624
000080 e5 56 39 bd 5c 80 af 3c 49 7b 36 3c d0 2a 1a bd
       -0.045248885 0.021423511 0.011137792 -0.037638485
000090 cb cd 9c bd 92 38 7a bd af 15 b9 bd ec cb 8c bd
       -0.076564394 -0.061089106 -0.09037339 -0.068748325
0000a0 8a f6 fa bc 5d 1e 0c 3c b4 8a 6e bd 40 86 2a 3c
       -0.030635137 0.008552161 -0.058237746 0.010407984
0000b0 83 75 e4 bc 33 c3 f4 3b 37 08 89 3c 31 29 3d bd
       -0.027888065 0.0074695586 0.01672755 -0.04618186
0000c0 7b dc 63 bd ef 82 8d bc 70 70 c5 3c 09 71 64 3c
       -0.05563019 -0.017274348 0.024101466 0.013942965
0000d0 32 d0 67 bc 33 44 de bc a7 f3 58 bd ac 97 f6 bc
       -0.014148759 -0.02713213 -0.05296674 -0.03010162
0000e0 6d 31 61 bd 45 2f 3c bd fd c3 9e 3c 3d a6 00 bd
       -0.054978777 -0.045943517 0.019380564 -0.031408537
0000f0 71 46 11 3d 33 6b 8d 3b d1 d7 19 3d 04 99 f9 bc
       0.03546757 0.0043157577 0.037559334 -0.030468471
000100 d1 d1 90 bc 18 ba 47 ba ea 1b c7 bc e9 b3 11 3d
       -0.017678173 -0.00076189777 -0.024305303 0.035571966
000110 bf b7 e0 3b 83 ff 69 bc 69 24 e3 bc ea e3 16 bc
       0.0068578417 -0.01428211 -0.027727323 -0.009209612
000120 93 b6 fb 3c 96 80 b3 bc 56 ad 21 3d f9 eb 2f 3d
       0.030726707 -0.0219119 0.039471947 0.04294965
000130 8e 2d ad 3c d3 5c 61 3c e6 c7 d5 bb 8c 91 92 3c
       0.021139886 0.013755041 -0.006524074 0.017891668
000140 b8 9c a0 bc 2d 86 44 3c b1 ba 58 3d 4b 94 ba 3c
       -0.01960598 0.011994881 0.052912418 0.02277579
000150 30 55 81 bd 29 fe 67 bd e6 48 11 3b 89 63 84 3d
       -0.06315076 -0.05663887 0.0022168695 0.06464297
000160 49 e5 4f bd c2 50 2e bd da 40 35 3d 44 de 7a bd
       -0.050755773 -0.042557485 0.0442513 -0.061247125
000170 c2 f1 2c bd 5c 8a 00 bc b9 5e b6 ba d5 c6 17 3d
       -0.042222746 -0.007845487 -0.0013913728 0.037054855
000180 a9 ed cc 3c 2c bd c1 3c 55 c2 e9 bc 03 05 06 3c
       0.025015669 0.023649774 -0.028535048 0.008179906
000190 55 2f 33 3c b7 be e1 bc e9 d2 02 bd 4f 8f d8 3c
       0.010936578 -0.02755676 -0.03193942 0.026435522
0001a0 38 f5 9e 3c 1e 62 2d 3c 69 3d d7 3c cc 7b ea bc
       0.019404039 0.010582475 0.0262744 -0.028623484
0001b0 d8 36 66 bd 66 14 67 bd 31 59 fb bc 0f 45 4b bd
       -0.056204647 -0.056415938 -0.030682178 -0.049626406
0001c0 62 79 e9 bc d0 3f c2 bd 09 df b7 bd a7 f8 a0 bc
       -0.028500263 -0.094848275 -0.089780875 -0.019649817
0001d0 c8 c7 09 bd 83 37 ca bb 42 2f 17 bd cc 1c 5a bd
       -0.033637792 -0.0061711683 -0.036910303 -0.05325012
0001e0 70 4b 13 bd bd fd 35 bd 4c 92 6f bc 9c 8f 63 bc
       -0.035960615 -0.044431437 -0.014622282 -0.01388922
0001f0 5a 7a 2c 3c 90 c7 c9 bc c3 6a 27 bd e4 b7 8d 3c
       0.010527218 -0.024631292 -0.0408733 0.0172996
000200 79 01 58 3d e5 cd 4d 3d 19 00 68 3b 44 90 86 ba
       0.05273578 0.050245184 0.0035400449 -0.0010266383
000210 36 8b f1 bc 9a 61 3e bd 9b 87 ad bd 61 1c 9e bd
       -0.029485326 -0.0464798 -0.0847313 -0.077202566
000220 1d 92 9b bd 69 fb a8 bd 9f 3c 05 bd 6e 5a 33 3c
       -0.07596228 -0.08251078 -0.032528516 0.010946853
000230 0c 4d d1 bc 02 2e 9b bc 74 f6 bd bc 4a 12 5c bc
       -0.025549434 -0.018942837 -0.023188807 -0.013432095
000240 a6 cb 98 bc ea e3 58 bd c7 53 f2 bc 10 76 10 bd
       -0.018651795 -0.05295173 -0.029580964 -0.035268843
000250 c4 3f 59 bd d4 5f a1 3c ab cc a1 3b d7 a8 95 bc
       -0.053039327 0.019699015 0.0049377284 -0.018268986
000260 ec 65 c5 bd 08 8a a0 bd fe f4 4f 3a 7b 07 0a bd
       -0.09638581 -0.07838827 0.000793293 -0.03369854
000270 70 6a 1e bd be 40 fd ba 0e f0 85 bb c7 7a 51 3c
       -0.038675725 -0.0019321663 -0.0040874546 0.01278562
000280 c8 00 44 bc 60 51 cc bb 12 a2 7b bd d1 27 77 bd
       -0.011963077 -0.0062352866 -0.06143386 -0.060340706
000290 05 92 01 bd 17 f6 0e bd c6 f1 ec 3b 71 28 c7 3c
       -0.031633396 -0.03490266 0.00723097 0.024311276
0002a0 04 f3 3f bd d0 e7 66 bd fd 29 90 bb 54 3e 51 3c
       -0.046862617 -0.056373417 -0.0043995366 0.012771208
0002b0 1e 8c 8c bd f5 d3 f1 bc 1f ed d1 bb eb 01 83 bd
       -0.06862663 -0.029520014 -0.006406441 -0.0639685
0002c0 7d a9 21 bd 87 ce 64 bd e8 cb b9 3c fd 76 fd bc
       -0.039468277 -0.055861022 0.022680238 -0.030940527
0002d0 9a 00 29 bd 6a de 3e bc ea a0 28 bc 5d 4c df bc
       -0.04126034 -0.011649707 -0.010292271 -0.027258093
0002e0 e2 ac 69 3a cb c7 89 3d 9e 9e 12 bc b7 3e a8 bc
       0.0008914006 0.067275606 -0.00894895 -0.020537717
0002f0 c0 5f 22 bd 90 20 96 bc bc f4 8a 3c e9 37 a5 bd
       -0.039642096 -0.018326074 0.016962402 -0.08067305
000300 7b ca da 3d a1 21 3e 3d e8 69 f5 bc bd db 25 3c
       0.10683151 0.04641879 -0.029957727 0.0101231905
000310 af af 43 bd 25 31 69 bd 4c f4 e4 3c 47 b1 b6 3c
       -0.047774967 -0.056931634 0.027948521 0.02230133
000320 53 ea 0c 3d 41 69 1e bc 38 04 27 bc 94 a5 cb bc
       0.034403156 -0.009668649 -0.010193877 -0.024859227
000330 df 3b 9e 3c 1c 1d 83 bc dc 58 ef 3b 01 4d 40 bb
       0.019315658 -0.016005091 0.007304294 -0.0029342773
000340 98 2c 15 3d c2 f1 67 3d 9a bf ca bc e1 4a 31 bd
       0.03641948 0.056627043 -0.024749566 -0.0432843
000350 d5 03 8a bd b8 1e 4b bc b0 39 d7 bc b4 11 a2 bb
       -0.06739012 -0.012397461 -0.026272625 -0.004945958
000360 68 7f a0 bc df 3d 5c bb 76 1c 8b bd 94 e4 87 bc
       -0.019592002 -0.0033606214 -0.06792538 -0.016588487
000370 40 22 ad bc 65 78 74 bd 03 36 ce bb 34 af 29 3c
       -0.021134496 -0.05968513 -0.00629306 0.010356713
000380 b8 57 e0 bc 17 ec 22 3d 9b a5 e8 3c 69 c9 2b bb
       -0.027385578 0.039775934 0.02839928 -0.002621258
000390 99 3d 20 bc 14 d1 24 3c 0d 89 d1 bc 13 29 c6 bc
       -0.009780311 0.010059614 -0.025578046 -0.024189508
0003a0 14 c5 82 bd 86 ff 8b bc ba a2 ec bc 06 a7 c0 bc
       -0.06385246 -0.017089617 -0.028886188 -0.023517143
0003b0 98 58 5d 3b ae 3a 2b 3a 3e bc f7 bc a3 01 81 bc
       0.003377473 0.0006531876 -0.030241128 -0.01574785
0003c0 f2 fd 35 3c 1d a6 b6 3c 0a 50 f9 bc ad 75 13 bc
       0.011107909 0.022296006 -0.030433673 -0.009000224
0003d0 31 73 d5 bb 1e 80 be 3c 56 9d 9d bc 5f 28 03 3c
       -0.006513976 0.02325445 -0.019240063 0.008005231
0003e0 97 24 92 3b bb f1 b5 bc ee 9e ca 3b 19 91 ae bc
       0.0044599283 -0.022209993 0.0061834967 -0.021309422
0003f0 42 d7 a2 3c 71 25 18 bd 22 c4 7e bd cf 72 58 bd
       0.019878034 -0.037145082 -0.062198766 -0.052843865

fc.0.bias f4 [128]
000000 98 c6 55 bc 2b 7f 94 bc 84 d6 55 bd a6 86 03 3d
       -0.013047837 -0.018127045 -0.05220653 0.032110833
000010 23 f5 0e 3b f5 35 db 3c f3 6b 23 3d 08 84 e1 3c
       0.0021813593 0.026759127 0.03989787 0.027528778
000020 5d 63 f7 3c 2c 9d ba ba aa 57 c0 ba 3b ce c2 bc
       0.030198747 -0.0014237515 -0.0014674563 -0.023779979
000030 4f a4 1e 3c 98 11 ef bc 9b 3a 0e bd cb be 9f 3c
       0.009682729 -0.029183194 -0.03472386 0.019500157
000040 bb 34 b5 b9 c1 0a 20 3c d4 49 88 3c 86 14 d2 ba
       -0.00034562298 0.009768189 0.016636766 -0.0016027845
000050 f3 01 a8 bc 1e d7 91 3c d0 60 ea 3c f1 87 86 bc
       -0.020508742 0.017802771 0.028610617 -0.016422244
000060 c2 fd 0b bc ed 04 cf 3c f1 5c 14 3d fb 77 32 ba
       -0.008544387 0.025270903 0.03622145 -0.00068080396
000070 5b 65 89 bc 09 6f 16 bd 47 bb 0e bd c7 83 f5 bc
       -0.016771963 -0.036726985 -0.03484657 -0.029970063
000080 52 ed f8 bb ef b6 3a bc 35 89 a8 bc 5e 7f 18 bc
       -0.00759665 -0.011396154 -0.020573238 -0.00930771
000090 a3 03 26 3c 90 93 9b bc 11 49 98 3c d0 21 f9 bc
       0.010132703 -0.018991262 0.018589528 -0.03041163
0000a0 25 81 0e bd 04 db 8c bc 63 5b a6 3b 35 19 60 3c
       -0.03479113 -0.017194279 0.005076812 0.013677885
0000b0 6c 62 48 bc 27 8d 82 bb 2f d3 4e bc 60 ef 15 bd
       -0.012230497 -0.003984112 -0.012623592 -0.03660524
0000c0 72 b7 f3 bc f1 f7 ce 3c 59 77 06 bd 4b 44 e9 3c
       -0.02975056 0.025264712 -0.032828663 0.028474947
0000d0 71 65 0d 3b 1f f5 da 3c ea 85 e1 3c de 8a 44 3c
       0.0021575356 0.026728211 0.027529676 0.011995999
0000e0 99 47 d9 bc 3d bf 1c bc f0 03 ac bc f4 1d ed bb
       -0.026523398 -0.009567079 -0.020997971 -0.0072362367
0000f0 17 44 03 3c 70 87 de bc c2 06 27 bc 00 a1 20 3c
       0.008011839 -0.027164191 -0.010194482 0.00980401
000100 1a 3f 89 bc 40 b7 c2 3b 63 ac 9d bb 31 a2 01 3d
       -0.016753722 0.0059422553 -0.00481181 0.03164882
000110 46 41 cf b9 d8 cc 92 bb 0e d5 d8 bc 1c 9e f7 3c
       -0.0003953075 -0.0044799857 -0.02646878 0.03022676
000120 92 b1 53 3c 34 70 0d 3d 91 7e c1 3c 6b 1d 97 bc
       0.012920754 0.034530833 0.023619922 -0.018446645
000130 b9 96 c1 ba da 0f f9 bc 30 8f 2b bd 9d e8 85 bc
       -0.001476965 -0.030403066 -0.0418846 -0.01634627
000140 12 79 c1 3b db ff fd 3c 34 74 55 3a d8 a2 01 3d
       0.0059043253 0.03100579 0.0008142621 0.03164944
000150 d4 df c8 bc 66 69 f8 bc 0a 97 08 bb a2 43 ba 3c
       -0.024520792 -0.030323695 -0.002084198 0.022737328
000160 83 f8 7e ba 37 f1 34 bb ba 17 ed bc 24 d1 81 3c
       -0.0009726362 -0.0027609596 -0.028941978 0.015846796
000170 1c 62 d6 bc 5d 61 52 3d 0e b2 b2 bb fa 51 f6 bb
       -0.02616983 0.051362384 -0.0054533547 -0.0075170966
000180 e3 89 0b bd 1c 8c a2 3c 83 2b d3 bb 28 52 24 3d
       -0.034067046 0.0198422 -0.006444396 0.040117413
000190 46 c4 06 3c 12 57 76 bb fe 08 01 bd 26 a2 b2 bc
       0.008225506 -0.003758852 -0.031502716 -0.021805834
0001a0 b4 93 c4 b9 08 e3 1b bd ca 20 93 bb 64 60 b7 3a
       -0.0003749408 -0.03805831 -0.0044899927 0.0013990519
0001b0 a6 e8 43 bc d3 49 d2 bb f2 5b cf 3c 14 eb 93 3c
       -0.011957323 -0.006417492 0.025312398 0.01805643
0001c0 2f 54 19 3c 17 d6 7d 3c 61 e8 7c bc 71 f2 a7 ba
       0.00935845 0.0154929375 -0.015436263 -0.0012813342
0001d0 5a 35 52 bd 9b e6 f8 bc 04 3e 18 3b dc fd 90 3c
       -0.05132041 -0.030383399 0.0023230324 0.017699175
0001e0 40 25 c8 3c 0c c9 06 3c c5 20 50 3d 73 d1 07 3d
       0.024431825 0.008226644 0.0508125 0.03315873
0001f0 98 e1 bb bc 63 00 f8 3c 9c 21 a0 3b 6f 18 98 38
       -0.02293472 0.030273622 0.004886819 7.252476e-05

fc.2.weight f4 [10, 128]
000000 d8 a9 80 bd 8f fd 53 bd 45 01 18 bc 03 e4 4c be
       -0.06282395 -0.051755484 -0.009277646 -0.20008855
000010 a9 78 30 be 60 ac 10 3b 58 1a 39 3d 02 95 34 bd
       -0.17233528 0.00220754 0.04519114 -0.044087417
000020 c4 94 85 bd 3e 0f d4 3c 74 3c b9 bc f3 b4 42 3d
       -0.065225154 0.025886174 -0.022611834 0.047535848
000030 88 8b 22 bc 21 ef 81 3d 3e 25 33 bc ad b5 da bb
       -0.009920962 0.06344438 -0.010934172 -0.0066744895
000040 82 20 fa bd 5a de 1a 3d 16 97 df bc 53 d6 98 bd
       -0.122132316 0.037809707 -0.027293723 -0.07462754
000050 10 80 6b bd 3e 1c dd bd c2 c5 e0 3d ac af aa 3c
       -0.057495177 -0.107964024 0.10975219 0.02083572
000060 e8 18 b4 bd 66 6a aa 3d 50 49 d0 3d f2 ec 72 3d
       -0.08793813 0.08321075 0.10170233 0.059308
000070 d2 00 ba bd 97 ad a6 bd 01 02 93 3d 16 cd 29 3d
       -0.09082188 -0.081385784 0.071781166 0.04145535
000080 ab 81 fd bd 33 61 0e bd 0e 07 99 3d 49 63 30 bd
       -0.12378248 -0.034760665 0.07472049 -0.043063436
000090 1f 84 d5 3c 9a db 4f be 04 e6 e9 3d cb 6a 68 bc
       0.026063977 -0.20298615 0.11420825 -0.014185618
0000a0 dc 8d 29 bc e3 ec 4f 3d 3a 2e 0a be 0d 8d c7 3d
       -0.010348763 0.050763022 -0.13494197 0.097437
0000b0 7b 81 76 3c 33 ef f8 bd 66 a3 3c bd 09 28 13 be
       0.015045519 -0.12154999 -0.046054266 -0.14370741
0000c0 37 67 f5 bd 30 88 42 bb 31 01 96 3d 14 7b 8a 3c
       -0.11982577 -0.0029683225 0.07324446 0.016904391
0000d0 82 6f 8a bd fa ef 82 3d d8 85 42 be 59 33 b9 3d
       -0.0675955 0.06393428 -0.1899637 0.09042997
0000e0 05 1e 81 bc 91 78 14 ba 9b 87 8e bd 40 3b 51 bd
       -0.015761385 -0.0005663718 -0.069594584 -0.051081896
0000f0 78 17 99 bc eb 8d ae bc b5 7b 03 bb 6d 74 d6 bc
       -0.018687949 -0.021307906 -0.0020062749 -0.026178563
000100 55 b5 70 bd 7c 45 52 3d 99 11 6b be f2 47 9c 3d
       -0.05876668 0.051335797 -0.22955932 0.0763091
000110 d9 dc 9e 3b d7 6f 2f 3d fe 6e fa bc e1 09 91 3c
       0.0048481044 0.04283127 -0.030570503 0.017704906
000120 b3 43 a3 3d 25 02 ec 3d 67 cc 1f bd 33 74 57 3d
       0.07971897 0.115238465 -0.039013293 0.05260105
000130 99 bf 2f bc 5c e8 d8 3c 93 ce 4c 3d 63 98 ec 3b
       -0.010726833 0.026477985 0.050001692 0.0072203143
000140 ff 1c 29 bd 23 be ad bd f7 14 ce 3d 61 fc bf 3d
       -0.04128742 -0.08483531 0.100625925 0.09374309
000150 12 9a 8d bd 4a 1a 89 bd 2d 2c f2 3d 16 f4 d6 3d
       -0.06914152 -0.06694467 0.11824832 0.104957744
000160 54 ad 92 bc 13 ca 57 3d ff 81 0c 3d 29 fa f2 bd
       -0.017904915 0.052682947 0.03430366 -0.118641205
000170 4b 6e d4 3c cb 88 37 bd d0 cc 0b bd 07 91 97 3d
       0.025931498 -0.04480819 -0.03413087 0.07400709
000180 b6 59 c0 3d c9 af a3 bc 24 bc 56 3d 2c b9 85 3d
       0.09392111 -0.019981282 0.05242552 0.06529459
000190 61 fa 61 bd 53 48 13 3d 93 7f 08 bd e5 63 62 3c
       -0.05517042 0.035957646 -0.03332479 0.013817762
0001a0 0e c1 20 3c 9c 8c 3b bd 37 95 3d 3d 82 27 46 3d
       0.009811653 -0.045788392 0.04628488 0.04837752
0001b0 b8 2d 00 3d 3e 5e 6f 3c 73 74 ea 3d 73 7d 10 3e
       0.0312936 0.014609871 0.11447992 0.14110355
0001c0 c6 a9 e9 3d b2 b7 17 be 83 63 73 bd 58 a8 f6 bc
       0.11409335 -0.14816168 -0.059421074 -0.03010957
0001d0 dd 32 56 3d 20 bb b5 bd 77 06 07 bc 95 a9 76 3a
       0.0522946 -0.08873582 -0.008241287 0.0009409425
0001e0 87 f6 f2 3d f3 9b 99 3d 4c 01 aa 3d 52 3b d3 3d
       0.118634276 0.07500448 0.083010286 0.10314049
0001f0 45 4b 48 bd 28 b8 8c bd ce 29 99 3c 2b f6 97 bd
       -0.048899908 -0.068710625 0.018696692 -0.0742
000200 de c0 3e 3d 20 27 b2 3b 43 5b 58 3c 87 59 d4 3d
       0.04657065 0.005436793 0.013205352 0.103686385
000210 bc 21 11 bd e9 ee 16 3e 5e d4 46 bd 66 da a5 3d
       -0.035432562 0.14739574 -0.048542373 0.08098297
000220 e3 77 f4 bd 80 8f 56 be 01 5a e6 bc aa 8d d2 3d
       -0.11936929 -0.20953178 -0.02811909 0.102809265
000230 3a 83 2f ba cf b2 f5 bd 49 da e4 3b 4a b5 b2 3c
       -0.00066952745 -0.11996996 0.0069840294 0.021814961
000240 e1 be 8e 3d f1 00 55 bd d3 3c 7b 3d 89 d2 10 bd
       0.06970001 -0.05200285 0.061337303 -0.035357032
000250 c0 a4 43 bd f8 7a 06 3e 16 91 ee 3d be dc 6d 3c
       -0.04776454 0.13132846 0.11648767 0.014517961
000260 f0 6e 38 bc 4a 89 b4 bd ea 50 79 3d 33 4b 05 3d
       -0.011256918 -0.08815248 0.06086818 0.03254242
000270 81 75 09 bd 58 72 53 3d 9f 84 96 bc 62 3a fe 3c
       -0.033559326 0.05162272 -0.018373786 0.031033698
000280 bf 3a d9 3d 70 00 29 be 4c ab 6c 3d 29 76 ea 3a
       0.10606908 -0.16504073 0.05778055 0.0017887998
000290 d4 ec 54 3c 8c 62 e2 bd d3 85 fa bd a0 47 78 bd
       0.012995917 -0.110539526 -0.12232556 -0.060615182
0002a0 b6 82 e5 3d c5 4a 90 3d ca c8 d4 3d 53 41 35 be
       0.11206572 0.07045511 0.1038986 -0.177007
0002b0 7f 9b 37 bb ee 20 9a bd 19 12 04 bd 29 ee d9 bc
       -0.0028016267 -0.07525812 -0.03224382 -0.026602821
0002c0 9c 79 18 be cf e8 86 3d 33 03 bb bc 80 7b f7 3b
       -0.1489014 0.065873735 -0.022828674 0.007552564
0002d0 49 94 2a ba ec f3 4e 3e 78 0a 03 3e f5 05 94 bd
       -0.00065070816 0.20210236 0.12796962 -0.07227699
0002e0 64 ec fb 3c 7e 5c 22 3d 15 ee 59 be 11 f6 aa bd
       0.030752368 0.03963899 -0.21282227 -0.08347715
0002f0 ca a1 4b bd 22 30 27 bd 64 2d 84 bc 67 89 6d 3d
       -0.04971484 -0.040817387 -0.016134925 0.057992365
000300 1a 65 33 be 09 83 ea 3c 3e be 16 3d 3b ae 5f 3c
       -0.17519036 0.028626936 0.036802523 0.01365238
000310 53 a8 60 3d 73 ef 96 ba 59 bf b5 3c 5e 0f e5 b9
       0.054848026 -0.0011515453 0.022185968 -0.00043689733
000320 e9 0e f2 3c 38 46 e6 3d d0 02 dc bd e2 35 fa bc
       0.029548125 0.11243862 -0.10742724 -0.030543271
000330 f3 fe 28 bc ad 10 0e bd 61 07 73 bd 54 64 c0 bc
       -0.010314691 -0.034683872 -0.05933321 -0.02348534
000340 54 1b 14 bc c7 29 00 3e 77 0e 30 be ee d9 11 be
       -0.009039719 0.12515937 -0.17193018 -0.1424329
000350 d8 5e 9c 3c e1 cb 65 bd 04 cc 8e 3d 00 c0 93 3d
       0.019088194 -0.056102637 0.06972507 0.072143555
000360 82 3c fa 3b 6d ca a9 bd e6 42 05 bd 35 41 22 bd
       0.0076366076 -0.08290563 -0.032534502 -0.039612968
000370 71 9d 42 3d 04 8d fc 3d 51 10 42 bd 28 bf 85 3d
       0.04751343 0.12331584 -0.04737884 0.06530601
000380 3c f3 44 3d 74 e8 a2 bb 07 55 10 bd 36 27 7f 3d
       0.04808353 -0.004971558 -0.03523734 0.062293254
000390 d4 cf 27 3d 86 5a 9c 3d cb bc 17 be 03 a5 d3 3c
       0.040969685 0.076344535 -0.14818113 0.02583552
0003a0 c9 2f 28 bd ba 0b 28 bc ea 7f 42 3d 19 fe 0e bc
       -0.041061196 -0.010256702 0.04748527 -0.008727574
0003b0 20 17 15 be 07 dd 67 39 7e 4d b0 3c db 02 1a be
       -0.14559603 0.00022112216 0.021521326 -0.15040152
0003c0 87 c6 43 3d de 62 2b 3e f5 c9 3f bd 38 f0 26 bd
       0.047796752 0.16736934 -0.04682346 -0.040756434
0003d0 a8 af df bb a8 17 e0 3d fe 66 47 be 3e 44 7d 3d
       -0.00682636 0.10942012 -0.19472882 0.06183266
0003e0 17 8f 01 be 6b 23 9e bd 9e 8c 0f 3e ed 9f 51 be
       -0.1265224 -0.07721599 0.14018485 -0.20471163
0003f0 83 ec 85 bd 4b d5 2a 3b 44 0e c4 bd ac 4a 4b 3d
       -0.06539252 0.0026067074 -0.095730335 0.04963176

fc.2.bias f4 [10]
000000 6b c5 a4 3d 77 51 26 3d fb a9 33 bd 8b 68 ac 3c
       0.08045467 0.040605035 -0.043863278 0.021045944
000010 53 0a 57 3d fb b0 08 bd 7a e7 92 bd 1f 26 6f bd
       0.05250008 -0.033371907 -0.07173057 -0.058385964
000020 b4 ba 9e 3d fa b2 56 3d
       0.077504545 0.05241678
