L4T4 - Pytorch for CNNs/L4304T4 - Sun/fashion_model.pth (torch, 831457 bytes, 8 tensors)

conv.0.weight f4 [16, 1, 3, 3]
0.5685842 -0.46597365 -0.8427602 -0.011340917 -0.2532465 -0.42651865 -0.21757178 0.5125476
0.54028624 0.33907127 -0.41091684 -0.4145398 0.33834136 0.124440596 -0.3335961 0.42522177
-0.09725222 -0.033601597 0.17131177 0.6677144 -0.04135063 0.1600414 -0.65491974 -1.3320264
-0.122451454 -1.2085233 -1.3558482 -0.19789854 0.07799899 0.13957043 -0.4199053 0.51993054
-0.0882755 -0.2727311 0.34162074 -0.06371454 -0.09751112 -0.089712754 0.36969876 -0.33800033
0.038256466 0.6429775 -0.42409575 -0.48952007 0.4885618 -0.037861373 0.13554087 0.17848863
-0.13491023 0.1579709 0.3959778 -0.24966148 0.2614463 -0.051909424 -0.3044412 0.42100674
-0.25918466 -0.5582407 0.04861843 0.48581007 -0.33888733 0.26285982 0.33074245 -0.46099204
-0.053767253 0.44203603 -0.4905405 0.07299605 0.3885094 0.06532877 -0.22493634 0.3525956
-0.26151854 -0.5711167 -0.03665192 0.03455484 -0.32757357 0.03795374 0.2997979 0.17694093
0.6790679 -0.15361159 0.10232257 0.18393382 -0.4319289 0.03104979 0.248761 -0.39860496
0.4545933 -0.16177946 -0.2414775 -0.40630323 0.029095748 0.46185777 0.43581653 0.04705437
-0.26512495 0.016426975 -0.13618481 -0.56274694 -0.44104066 0.103804514 0.006433602 0.37677196
-0.041584224 0.520874 -0.02898151 0.029716117 -0.58822113 -1.4770615 -0.817332 -0.8370431
-0.99373275 -0.34860665 0.2775652 0.29292727 0.11771365 -0.08283581 -0.03372633 -0.47344273
0.38215688 0.58919615 -0.022138359 -0.19701828 0.29106262 -0.4512938 -0.3146798 0.4579982
0.06479077 -0.67828727 0.4974876 0.15990591 -0.45884284 -0.25199032 0.603131 0.17611203
-0.096275486 0.010002175 0.23076521 0.23833212 0.035127353 0.045622427 0.40342838 0.26938632
00000000: bc8e 113f 1994 eebe 22bf 57bf 41cf 39bc
00000010: 86a9 81be a760 dabe 23cb 5ebe 5236 033f
00000020: 3350 0a3f c09a ad3e b163 d2be 903e d4be
00000030: 143b ad3e b6da fe3d 1ccd aabe abb6 d93e
00000040: 2c2c c7bd d4a1 09bd 5a6c 2f3e 55ef 2a3f
00000050: 475f 29bd e5e1 233e d2a8 27bf d77f aabf
00000060: d4c7 fabd e4b0 9abf 6f8c adbf eaa5 4abe
00000070: efbd 9f3d 8deb 0e3e d4fd d6be 2b1a 053f
00000080: c9c9 b4bd 69a3 8bbe eae8 ae3e c57c 82bd
00000090: e9b3 c7bd 52bb b7bd 2849 bd3e 610e adbe
000000a0: d0b2 1c3d 2c9a 243f 1423 d9be 60a2 fabe
000000b0: c624 fa3e 8714 1bbd 3acb 0a3e b9c5 363e
000000c0: e825 0abe 20c3 213e 9abd ca3e 42a7 7fbe
000000d0: 4adc 853e fa9e 54bd b8df 9bbe 328e d73e
000000e0: dab3 84be dde8 0ebf 1e24 473d 19bc f83e
000000f0: a482 adbe 9095 863e 1357 a93e 2607 ecbe
00000100: 0d3b 5cbd 8c52 e23e 2028 fbbe f47e 953d
00000110: b4ea c63e 17cb 853d b655 66be 6987 b43e
00000120: c2e5 85be b434 12bf 5320 16bd 6089 0d3d
00000130: b9b7 a7be 6275 1b3d 1c7f 993e 0130 353e
00000140: 65d7 2d3f 5b4c 1dbe 7f8e d13d 2659 3c3e
00000150: c925 ddbe 215c fe3c 34bb 7e3e f315 ccbe
00000160: 74c0 e83e 84a9 25be e145 77be fa06 d0be
00000170: 355a ee3c 9f78 ec3e 5823 df3e 15bc 403d
00000180: 75be 87be dd91 863c 0874 0bbe 2f10 10bf
00000190: 15d0 e1be 7697 d43d f7d0 d23b 41e8 c03e
000001a0: 3854 2abd 0058 053f a26a edbc 376f f33c
000001b0: a995 16bf 5a10 bdbf ac3c 51bf 7548 56bf
000001c0: 4565 7ebf 927c b2be 071d 8e3e 90fa 953e
000001d0: db13 f13d d2a5 a9bd 9f24 0abd 1667 f2be
000001e0: 11aa c33e 8fd5 163f 815b b5bc 29bf 49be
000001f0: 2906 953e fb0f e7be b61d a1be bd7e ea3e
00000200: 06b1 843d 3ca4 2dbf b2b6 fe3e 60be 233e
00000210: 73ed eabe e004 81be cb66 1a3f b656 343e
00000220: 152c c5bd 2ae0 233c b74d 6c3e 560d 743e
00000230: b3e1 0f3d 95de 3a3d 2a8e ce3e 01ed 893e

conv.0.bias f4 [16]
0.01705773 0.098205715 0.14536116 -0.00011163354 0.02640172 -0.025056373 0.027183864 0.005078865
-0.0648689 0.1323936 0.0010739667 0.0046998067 0.15709987 -0.01726696 -0.26720285 -0.17312759
00000000: a7bc 8b3c 1420 c93d 8ed9 143e cd1c eab8
00000010: 6b48 d83c 0643 cdbc b2b0 de3c 9c6c a63b
00000020: fcd9 84bd 3092 073e 58c4 8c3a d600 9a3b
00000030: cade 203e 7173 8dbc d0ce 88be 5c48 31be

conv.3.weight f4 [32, 16, 3, 3]
0.025958655 0.18057042 0.17695813 0.21867442 -0.32906625 -0.24945176 0.28173763 -0.30935594
0.033407193 0.09289407 0.10089216 0.22161923 -0.0894156 -0.073171645 0.034586526 -0.09300796
0.21656393 0.030233722 0.012893369 -0.52764755 -0.22982 -0.15696009 -0.1679063 -0.17462102
-0.18425034 -0.2810521 -0.035232753 -0.14610791 0.27828687 -0.0020050544 0.10737871 0.4035638
-0.42421952 -0.031417597 -0.09815879 -0.29344547 -0.11925454 0.15584967 0.13927568 0.17874369
-0.07177485 -0.08123342 0.03348371 -0.28954187 -0.13028112 -0.06336199 0.17882656 0.03242651
-0.049728483 0.020296942 -0.19452365 0.037779402 -0.19617113 -0.21889275 0.026321957 0.2539527
0.05596991 0.1521445 -0.069020785 -0.41166508 0.094059184 -0.2521982 -0.23859027 -0.10042269
0.17360705 0.18444112 0.22161223 0.13826698 -0.26650256 0.22174692 -0.1629133 -0.21010864
-0.1781579 -0.014722185 0.016846476 0.21172853 0.056626372 -0.037091002 0.06671205 -0.33653352
0.13212664 0.0050413436 0.30770615 0.10421428 0.04041324 0.25484267 -0.012910227 0.022816978
0.007242208 0.15418412 -0.30485082 0.0012912407 0.0036285575 0.067892104 0.091542736 -0.14977905
0.040813502 -0.18600206 -0.104035534 -0.07201527 0.052039865 0.281684 0.10878156 0.17143166
-0.33182174 0.32187787 -0.21154411 -0.64155465 0.09157347 -0.046803374 -0.02761163 -0.13837494
-0.3927983 -0.3177508 0.022331102 -0.2486625 -0.203503 -0.11117679 -0.006616675 -0.008295224
-0.17012352 0.008047692 0.0625617 -0.13622548 0.09505846 0.00780311 -0.81435704 -0.6494554
0.13697994 -0.4120788 -0.4428151 -0.50237644 -0.37110478 -0.2071581 0.0034520773 -0.112169325
-0.03859381 0.061274353 -0.09845154 -0.062802196 -0.039380185 0.012566883 -0.0860982 -0.14419547
0.07898649 -0.45435148 -0.17571273 -0.066315606 0.09499321 -0.20594999 -0.1366108 -0.025976013
-0.44281012 0.13005522 -0.16904548 -0.05321422 0.06843182 0.07372308 0.098525636 -0.09362146
-0.028113257 0.05968951 0.050425977 -0.012061904 -0.03789706 -0.09645478 0.39440632 -0.14206117
-0.034833904 0.1337652 -0.1389955 -0.016500179 -0.020109994 0.34896633 0.0143040875 0.06655538
0.59201044 -0.09356962 -0.01182083 0.30009997 -0.12574655 0.042724237 -0.036620017 0.03772125
0.048134275 0.1646483 -0.06732336 -0.19621326 0.06911286 -0.008141383 0.029762898 0.095776774
0.08849133 -0.04194879 0.049967002 0.07478731 -0.09276333 -0.018201923 -0.1145849 -0.19063492
0.014712313 0.09567129 -0.23802872 0.40322524 0.0011746677 0.03548368 0.24194297 -0.115691245
0.02294976 -0.0813958 -0.021636235 -0.103855886 0.15810323 -0.11059672 -0.19740863 0.11895221
0.20210096 -0.13979872 -0.07255254 0.031810775 -0.15983263 -0.23585664 0.008910719 -0.13036242
-0.22883098 -0.14240643 -0.064148255 0.112343855 0.045204785 -0.118805856 0.22359915 -0.10292159
-0.20503142 0.13044496 0.03893954 -0.13422644 0.051140074 0.016074166 -0.08742474 0.017368887
0.03256811 0.015122644 -0.19631241 -0.030903626 -0.11815728 -0.14504075 0.13327214 -0.019715073
-0.2143394 0.30523622 -0.07700783 0.13680553 0.09484049 0.1353096 0.04179821 -0.17729586
00000000: 3fa7 d43c 74e7 383e 8334 353e 30ec 5f3e
00000010: 5f7b a8be 4870 7fbe ea3f 903e e763 9ebe
00000020: fbd5 083d 3f3f be3d 8ca0 ce3d 27f0 623e
00000030: 871f b7bd 04db 95bd 9aaa 0d3d f57a bebd
00000040: efc2 5d3e b6ac f73c b63e 533c e913 07bf
00000050: ef55 6bbe 25ba 20be a1ef 2bbe dacf 32be
00000060: 1fac 3cbe 10e6 8fbe 3850 10bd 509d 15be
00000070: 9e7b 8e3e 3b67 03bb 5ee9 db3d ea9f ce3e
00000080: 4d33 d9be bdaf 00bd 7a07 c9bd 7c3e 96be
00000090: b93b f4bd 0e97 1f3e 499e 0e3e 9608 373e
000000a0: b1fe 92bd b55d a6bd 3726 093d d53e 94be
000000b0: 6a68 05be eec3 81bd 4f1e 373e a9d1 043d
000000c0: 18b0 4bbd c645 a63c 3531 47be 93be 1a3d
000000d0: 16e1 48be 6c25 60be 25a1 d73c 1706 823e
000000e0: b440 653d c5cb 1b3e c55a 8dbd c4c5 d2be
000000f0: 1aa2 c03d 1f20 81be 0251 74be 69aa cdbd
00000100: 0cc6 313e 22de 3c3e 51ee 623e dc95 0d3e
00000110: 0673 88be a011 633e bed2 26be b826 57be
00000120: 066f 36be 5235 71bc 9f01 8a3c 5dcf 583e
00000130: 0ef1 673d bcec 17bd 54a0 883d 1f4e acbe
00000140: 354c 073e db31 a53b a98b 9d3e 4c6e d53d
00000150: 5b88 253d bd7a 823e 6b85 53bc acea ba3c
00000160: 0b50 ed3b 71e2 1d3e 6815 9cbe d93e a93a
00000170: 18cd 6d3b 040b 8b3d c27a bb3d ae5f 19be
00000180: 0f2c 273d 5377 3ebe 9510 d5bd be7c 93bd
00000190: c127 553d e338 903e dec8 de3d c88b 2f3e
000001a0: 8ae4 a9be 2dcd a43e 059f 58be ed3c 24bf
000001b0: df8a bb3d e5b4 3fbd c931 e2bc 29b2 0dbe
000001c0: dc1c c9be 3cb0 a2be b7ef b63c 62a1 7ebe
000001d0: 1763 50be a8b0 e3bd b1d0 d8bb b1e8 07bc
000001e0: dc34 2ebe 77da 033c 5920 803d b17e 0bbe
000001f0: 03ae c23d 3bb1 ff3b b479 50bf b642 26bf
00000200: 7844 0c3e fefb d2be a9b8 e2be be9b 00bf
00000210: 7201 bebe 4121 54be 3f3c 623b 08b9 e5bd
00000220: 8b14 1ebd d1fa 7a3d f6a0 c9bd 709e 80bd
00000230: 1e4d 21bd 54e5 4d3c 4154 b0bd faa7 13be
00000240: abc3 a13d c2a0 e8be 0aee 33be 7ad0 87bd
00000250: cd8b c23d 8ee4 52be b4e3 0bbe a6cb d4bc
00000260: 02b8 e2be 322d 053e 421a 2dbe 27f7 59bd
00000270: fb25 8c3d 20fc 963d cfc7 c93d 9cbc bfbd
00000280: c64d e6bc fd7c 743d 788b 4e3d 4b9f 45bc
00000290: f339 1bbd 158a c5bd a0ef c93e 7c78 11be
000002a0: ffad 0ebd bff9 083e d654 0ebe 622b 87bc
000002b0: b7bd a4bc b7ab b23e b15b 6a3c 304e 883d
000002c0: ff8d 173f 6ea1 bfbd 28ac 41bc b4a6 993e
000002d0: b4c3 00be 9cff 2e3d dffe 15bd 9981 1a3d
000002e0: 7228 453d 9099 283e d4e0 89bd 21ec 48be
000002f0: 0b8b 8d3d 6f63 05bc 52d1 f33c 9d26 c43d
00000300: f13a b53d 7fd2 2bbd 33aa 4c3d 172a 993d
00000310: b3fa bdbd 331c 95bc 7dab eabd cd35 43be
00000320: ea0b 713c 4fef c33d cdbd 73be 8a73 ce3e
00000330: 4ff7 993a 5657 113d e6bf 773e 88ef ecbd
00000340: 2301 bc3c d7b2 a6bd 793e b1bc 65b2 d4bd
00000350: d0e5 213e 8880 e2bd 7d25 4abe 379d f33d
00000360: 8ef3 4e3e 6527 0fbe 6d96 94bd 044c 023d
00000370: 2aab 23be 6784 71be 44fe 113c ba7d 05be
00000380: ab52 6abe fed2 11be 2960 83bd 8914 e63d
00000390: a728 393d 7c50 f3bd 2df7 643e 8ec8 d2bd
000003a0: c2f3 51be 5d93 053e 117f 1f3d a872 09be
000003b0: 4178 513d f8ad 833c be0b b3bd 3249 8e3c
000003c0: 2366 053d f7c4 773c 1f06 49be 9a29 fdbc
000003d0: 72fc f1bd 9085 14be 7e78 083e 8181 a1bc
000003e0: ca7b 5bbe ec47 9c3e 48b6 9dbd c016 0c3e
000003f0: bb3b c23d 9a8e 0a3e 9a34 2b3d 0c8d 35be

conv.3.bias f4 [32]
0.16340536 -0.1380445 -0.004386838 -0.10104687 -0.2137181 -0.052571837 -0.021549597 -0.022723377
0.043657687 -0.044654112 0.07802575 0.0070442595 -0.048128624 0.03620908 -0.14617509 0.19550106
-0.069706775 0.087826 -0.068638295 0.036672425 -0.022564717 -0.09796642 -0.0063917283 -0.047165263
-0.15835685 -0.06998727 -0.12756231 0.13434863 0.07906641 -0.076499 0.07004921 -0.097152464
00000000: bc53 273e 8a5b 0dbe 77bf 8fbb a9f1 cebd
00000010: ebd8 5abe 9155 57bd c888 b0bc 6026 babc
00000020: 67d2 323d 3be7 36bd f7cb 9f3d 88d3 e63b
00000030: 8522 45bd f94f 143d ecae 15be 6e31 483e
00000040: 6dc2 8ebd 1ede b33d 3c92 8cbd d335 163d
00000050: a4d9 b8bc 9ea2 c8bd b471 d1bb 5d30 41bd
00000060: 4c28 22be 7c55 8fbd b29f 02be b092 093e
00000070: 92ed a13d 82ab 9cbd f675 8f3d dff7 c6bd

fc.0.weight f4 [128, 1568]
0.11291379 0.016830817 0.077821635 -0.13117668 -0.05158513 -0.17244858 -0.06402055 -0.11350218
0.10627262 0.029588804 0.002164241 -0.012649631 0.114388056 0.050971422 0.01967487 0.017461777
-0.19110747 -0.10442345 -0.13951229 0.02672606 -0.020850666 0.086206846 -0.016771724 -0.11852854
-0.030395823 0.025646452 0.023406379 -0.021632016 -0.106874034 -0.007481745 -0.044086933 0.078045666
0.038407627 0.1125898 0.13818027 -0.07113389 0.046041265 -0.016196867 0.0024005151 0.06897773
0.020656427 -0.009889108 -0.13807157 -0.0434882 0.05284248 0.08203576 -0.16347855 0.13509361
0.0743946 0.003234471 0.061698776 -0.27390036 -0.31024653 -0.21328728 0.070976056 -0.014567853
0.043296963 0.058086332 0.0073547005 -0.090621956 0.08405381 0.042782247 -0.021692663 0.043477885
-0.04584339 0.14938124 0.15451929 0.031267457 -0.07469991 -0.027399635 0.048273243 -0.024369081
-0.017652653 0.15055588 0.03193558 0.1670494 0.023826914 0.05659821 -0.052691538 0.00660765
-0.04406152 -0.021921804 0.0022880007 0.08471015 -0.0028395934 0.003878122 0.100328036 -0.24541044
-0.017428333 0.010112917 0.040917438 0.08985343 -0.08190319 -0.059269473 -0.4052979 -0.07483625
0.0001327592 -0.11780993 0.28483987 -0.008719697 0.035203457 -0.14590803 -0.087160595 -0.08773263
-0.10519915 0.028786331 0.12405762 -0.012373125 -0.22278695 -0.04531719 0.032622878 -0.013160838
0.025739195 0.005103062 -0.101247095 0.06791341 -0.07959314 -0.18667316 -0.03391301 0.002528961
0.06077622 0.015733227 0.041382138 0.085935585 0.12226989 -0.12998539 -0.028827475 0.022931144
-0.008108119 0.009806991 0.094297536 0.041816257 0.17092386 0.106289595 0.09191686 0.16226092
0.098352686 0.066654146 0.027367966 -0.12636338 0.014515868 -0.07617848 0.049092352 0.030789282
-0.15333366 -0.018444091 -0.1539311 0.071338624 -0.074595645 -0.05692822 -0.09320205 -0.17939
-0.05462508 -0.12474401 0.028755816 0.07657737 0.11327417 -0.005752614 -0.051151782 0.001666272
0.039938025 0.046738848 0.034609735 -0.13384038 0.05258017 -0.0024184748 -0.061173283 -0.035884034
0.16724597 0.030717123 0.010058252 0.01930488 -0.027626079 0.01338098 -0.041338254 0.018738579
0.11520708 0.019176885 -0.018877625 -0.08826944 -0.030701054 0.061694954 -0.00012784003 0.04966247
0.05433827 0.014780339 0.06688288 -0.0073555913 -0.09616698 0.18345255 0.18355604 -0.03566373
0.16063154 -0.02277894 -0.08321813 0.11534611 0.05359583 0.011252 -0.17559534 0.09120464
0.07087891 -0.013426951 -0.033508163 0.049143944 -0.0028605042 0.09960266 -0.054154817 0.12012146
-0.015090017 -0.019889034 -0.058758795 0.0033210497 0.026751677 0.25259182 0.17571273 -0.08486284
0.02424675 -0.07081064 -0.00852012 -0.22631137 0.083884895 0.002777012 -0.05997108 -0.018504066
-0.03772107 -0.04790302 0.054637585 -0.05825857 0.17298223 0.022386953 0.048077703 0.010374376
-0.028665347 0.05921099 -0.10456849 -0.12517735 -0.102346264 0.019107856 0.06059995 0.016491532
0.013087406 0.024833728 -0.07165726 -0.011076996 0.047610056 -0.09502286 0.034442566 -0.33592296
-0.2846809 0.19374421 -0.07674535 0.115979016 0.07314613 0.00018466864 -0.08612684 -0.32128704
00000000: 583f e73d c8e0 893c f360 9f3d 2e53 06be
00000010: ee4a 53bd 5c96 30be 351d 83bd d573 e8bd
00000020: 76a5 d93d 3864 f23c f0d5 0d3b 6640 4fbc
00000030: 4944 ea3d 69c7 503d 312d a13c 000c 8f3c
00000040: adb1 43be f6db d5bd 4fdc 0ebe 9cf0 da3c
00000050: 04cf aabc 378d b03d db64 89bc 17bf f2bd
00000060: a900 f9bc 8218 d23c bcbe bf3c a035 b1bc
00000070: c6e0 dabd 6d29 f5bb 8094 34bd 68d6 9f3d
00000080: 5151 1d3d 7b95 e63d 217f 0d3e a5ae 91bd
00000090: c495 3c3d 4baf 84bc f651 1d3b 3244 8d3d
000000a0: ab37 a93c ed05 22bc a262 0dbe af20 32bd
000000b0: 5b71 583d 5d02 a83d ec66 27be fb55 0a3e
000000c0: 325c 983d 6bf9 533b dbb7 7c3d ab3c 8cbe
000000d0: a2d8 9ebe fb67 5abe e55b 913d 01ae 6ebc
000000e0: 2858 313d efeb 6d3d b3ff f03b 0198 b9bd
000000f0: 6724 ac3d 703c 2f3d d0b4 b1bc de15 323d
00000100: 47c6 3bbd 65f7 183e 4e3a 1e3e 4e12 003d
00000110: 44fc 98bd 3375 e0bc 2aba 453d aba1 c7bc
00000120: 4c9c 90bc 522b 1a3e e2ce 023d ff0e 2b3e
00000130: a930 c33c 86d3 673d 15d3 57bd fc84 d83b
00000140: da79 34bd 5b95 b3bc 48f2 153b 847c ad3d
00000150: 7918 3abb 1728 7e3b c978 cd3d e04c 7bbe
00000160: ddc5 8ebc a6b0 253c 0b99 273d 1305 b83d
00000170: dcbc a7bd 8cc4 72bd 3583 cfbe bf43 99bd
00000180: 4735 0b39 5546 f1bd 88d6 913e 0fdd 0ebc
00000190: 8031 103d ea68 15be 4181 b2bd 2aad b3bd
000001a0: a772 d7bd 50d1 eb3c ec11 fe3d a6b8 4abc
000001b0: 4322 64be 859e 39bd 919f 053d 8ea0 57bc
000001c0: 01db d23c 9637 a73b a35a cfbd 3016 8b3d
000001d0: ba01 a3bd 4027 3fbe 5ee8 0abd edbc 253b
000001e0: 7cf0 783d f8e2 803c 5180 293d fffe af3d
000001f0: a368 fa3d e41a 05be 9927 ecbc 18da bb3c
00000200: ead7 04bc 80ad 203c 111f c13d 8647 2b3d
00000210: aa06 2f3e 5cae d93d e83e bc3d ba27 263e
00000220: 226d c93d f881 883d c932 e03c 6765 01be
00000230: f7d3 6d3c 7703 9cbd 1015 493d ce39 fc3c
00000240: 8003 1dbe 1018 97bc 1da0 1dbe fc19 923d
00000250: 9ac5 98bd 912d 69bd b7e0 bebd 03b2 37be
00000260: 8cbe 5fbd ca79 ffbd 5191 eb3c 99d4 9c3d
00000270: 4afc e73d 6c80 bcbb 8884 51bd cf66 da3a
00000280: 0e96 233d 3c71 3f3d f0c2 0d3d 740d 09be
00000290: 4e5e 573d 467f 1ebb d690 7abd 23fb 12bd
000002a0: 8742 2b3e 7aa2 fb3c 5ecb 243c 4525 9e3c
000002b0: 1650 e2bc e63b 5b3c 4d52 29bd a681 993c
000002c0: b1f1 eb3d d818 9d3c 40a5 9abc 9cc6 b4bd
000002d0: c780 fbbc d9b3 7c3d cc0c 06b9 e06a 4b3d
000002e0: ce91 5e3d 3c29 723c e4f9 883d 2c07 f1bb
000002f0: 32f3 c4bd fcda 3b3e 1df6 3b3e 2214 12bd
00000300: 987c 243e e69a babc 446e aabd 953a ec3d
00000310: 4d87 5b3d 4f5a 383c 44cf 33be 80c9 ba3d
00000320: f628 913d b7fc 5bbc db3f 09bd 294b 493d
00000330: 4c77 3bbb 7bfc cb3d 71d1 5dbd 3d02 f63d
00000340: 1e3c 77bc 54ee a2bc 10ad 70bd f8a5 593b
00000350: 5526 db3c b753 813e 0aee 333e 92cc adbd
00000360: 1fa1 c63c 2b05 91bd f997 0bbc 2bbe 67be
00000370: d8cb ab3d 88fe 353b 3ca4 75bd d795 97bc
00000380: 6981 1abd f535 44bd a9cb 5f3d 8aa0 6ebd
00000390: 4122 313e d864 b73c 20ed 443d 49f9 293c
000003a0: 97d3 eabc 3987 723d 0128 d6bd 7e2e 00be
000003b0: eb9a d1bd 1488 9c3c a737 783d 4019 873c
000003c0: 8f6c 563c 1a70 cb3c 0bc1 92bd 4a7c 35bc
000003d0: c302 433d 589b c2bd a613 0d3d 18fe abbe
000003e0: b2c1 91be e264 463e ab2c 9dbd 6886 ed3d
000003f0: a3cd 953d 9ca3 4139 4563 b0bd bc7f a4be

fc.0.bias f4 [128]
0.094874375 -0.022759592 0.05598348 0.003335861 0.060555413 -0.027596025 -0.061709844 0.022414397
-0.0058132485 -0.019074302 -0.013698789 -0.00041561175 0.038369432 0.01236641 -0.02979373 -0.01809456
0.058951523 -0.0057210666 0.004691283 -0.0048487103 0.0026285255 0.015232489 -0.020813989 0.006343823
0.073459454 0.006599851 -0.007088008 -0.015595852 0.01720812 -0.015803084 0.018984497 0.033204503
0.0010571153 -0.019764965 0.03435297 0.043239344 -0.036426768 0.06498553 -0.014143519 0.04595914
-0.006127717 0.03632323 -0.002281692 -0.01589634 -0.016415633 0.021157667 0.020590197 0.010635938
-0.026016766 -0.016154066 -0.021396343 -0.013073375 0.035886962 -0.029786758 0.01091217 0.07942382
0.018592518 -0.017770607 -0.013792703 -0.011073075 0.008468906 0.03252151 0.060115878 0.0030505122
0.06064448 0.058945477 -0.06255222 0.13594007 -0.030270537 -0.017230729 0.016828429 0.0849792
0.057520278 0.049563173 0.0041708797 0.04270225 -0.020941105 0.018434467 -0.032841537 -0.0164847
0.06782455 0.02337844 -0.022427933 0.031123962 -0.066396326 -0.0267745 0.04490009 0.07072988
-0.03005976 0.04020004 -0.027995236 0.02401189 -0.054700635 -0.020920834 0.0485942 -0.02020915
-0.027547613 -0.014152766 0.021480206 0.09424635 -0.032389343 0.018758448 0.08818769 0.018500505
-0.07357707 -0.022121392 0.045580912 0.009851254 -0.021450898 -0.02672359 -0.034758855 0.046099503
-0.06500286 0.007538789 0.015391698 0.004949452 0.019670812 0.009191657 -0.005503355 0.054413322
-0.011332474 0.016059738 0.022004908 0.0035548478 -0.009222189 0.011819033 -0.031978104 0.035861865
00000000: 7f4d c23d 5372 babc ef4e 653d 769e 5a3b
00000010: f408 783d 0f11 e2bc 76c3 7cbd 669e b73c
00000020: 107d bebb b641 9cbc e370 60bc 77e6 d9b9
00000030: 4429 1d3d 7c9c 4a3c fb11 f4bc 0b3b 94bc
00000040: 2777 713d c977 bbbb 56b9 993b eee1 9ebb
00000050: 5743 2c3b b191 793c 1982 aabc d8df cf3b
00000060: e971 963d 9043 d83b 8542 e8bb bf85 7fbc
00000070: 0bf8 8c3c 7875 81bc 6085 9b3c 7201 083d
00000080: e78e 8a3a 23ea a1bc b3b5 0c3d bd1b 313d
00000090: 3c34 15bd 2217 853d 38ba 67bc a73f 3c3d
000000a0: 04cb c8bb abc7 143d 7188 15bb 0b39 82bc
000000b0: 147a 86bc d852 ad3c c6ac a83c 5b42 2e3c
000000c0: 1d21 d5bc 8855 84bc 6247 afbc b631 56bc
000000d0: 35fe 123d 5c03 f4bc f5c8 323c f5a8 a23d
000000e0: 564f 983c aa93 91bc cafa 61bc d86b 35bc
000000f0: 2bc1 0a3c 4635 053d 113c 763d 1aeb 473b
00000100: 5966 783d d070 713d 611b 80bd e033 0b3e
00000110: ebf9 f7bc 7527 8dbc c6db 893c 9309 ae3d
00000120: 629a 6b3d c102 4b3d e0ab 883b 8ee8 2e3d
00000130: ae8c abbc e103 973c d984 06bd ec0a 87bc
00000140: 99e7 8a3d 2484 bf3c c9ba b7bc aef7 fe3c
00000150: ccfa 87bd 3256 dbbc 28e9 373d d4da 903d
00000160: e33f f6bc cca8 243d 4456 e5bc 95b4 c43c
00000170: c60d 60bd 2b62 abbc b60a 473d a98d a5bc
00000180: 88ab e1bc 01e1 67bc 42f7 af3c 3b04 c13d
00000190: b0aa 04bd 51ab 993c bf9b b43d 5f8e 973c
000001a0: 93af 96bd ec37 b5bc 0db3 3a3d 2767 213c
000001b0: cbb9 afbc 6eeb dabc 4d5f 0ebd d5d2 3c3d
000001c0: 3820 85bd f207 f73b 762d 7c3c 032f a23b
000001d0: af24 a13c 9b98 163c 7d55 b4bb 81e0 5e3d
000001e0: d7ab 39bc b68f 833c a343 b43c 73f8 683b
000001f0: aa18 17bc 9ea4 413c 79fb 02bd e4e3 123d

fc.2.weight f4 [10, 128]
0.011631387 0.021451902 0.31085265 -0.08387575 -0.19636789 -0.03207548 0.16420396 0.15631291
0.005063089 -0.018535802 -0.4188736 -0.03622613 0.008565193 -0.025647156 0.07155318 0.02962122
-0.041034922 -0.032120552 0.062387064 0.014573156 0.028301919 -0.08632831 -0.007759752 0.04076381
0.16501716 0.002111558 0.01170877 -0.16707684 0.025619447 -0.2477839 0.0237283 0.19058208
0.014122175 0.07596125 -0.20658416 -0.08131682 -0.12236257 0.09709776 0.07728489 -0.3026316
0.011407522 0.09558967 0.011866865 -0.025979754 0.05189888 -0.30943844 -0.21429536 -0.056148037
-0.20700908 -0.5974334 0.09383692 0.012310433 -0.12934467 0.012434082 -0.075585246 0.0582372
-0.06975021 -0.065541886 0.08604053 -0.034880776 -0.21962988 0.019532915 0.062374853 -0.01637897
0.119377725 0.0217768 0.02836273 0.2325279 0.031352166 0.07413535 0.06300497 0.11493914
0.09847108 0.21500681 -0.059547838 0.029867027 -0.09163698 0.15235344 0.114224434 -0.03494654
0.012970096 0.045354582 -0.056093354 -0.22251076 -0.0866948 0.066591665 -0.2940726 0.006370609
0.06578657 -0.024300532 -0.23058347 -0.17078426 0.058894165 -0.08215051 0.073654845 -0.022348037
0.077253655 0.04987308 0.16740067 0.06415666 -0.055211626 -0.036283787 0.052157056 -0.02347789
0.04279593 -0.04925466 -0.13635679 0.012452879 0.06884998 -0.032192282 0.07170688 0.051203147
0.0043072253 0.049151264 0.07093774 -0.11133408 0.1235955 0.02043337 0.07887673 0.09487555
0.06090675 -0.03364678 0.16501704 0.06959568 0.044336513 -0.4558952 0.115746945 -0.07676492
-0.23820361 0.049475055 -0.05223661 -0.060585335 -0.30354849 0.00981728 -0.33813876 -0.25448808
-0.04048864 -0.016258018 -0.33970606 0.043100696 -0.4450053 0.09104691 0.08157669 0.016136933
0.13262042 -0.17490843 -0.07677454 -0.041472632 -0.024815453 -0.03566084 0.04798577 -0.030656798
-0.31258568 -0.0051673255 -0.08072573 0.09704691 0.07322139 0.050918177 -0.045034513 -0.16024609
-0.29389763 -0.001544769 0.029545346 -0.41034737 -0.4273429 -0.28477174 0.06128617 -0.38417032
0.07615005 0.09745777 -0.02468909 0.050747614 0.07245156 0.29862827 0.10705841 0.06585448
-0.26938963 -0.15970293 -0.1216049 0.012017011 0.2549472 -0.084641576 -0.024179159 -0.53324884
0.04082523 -0.055430613 0.054287344 -0.075146586 0.14089032 -0.19805776 -0.1152422 0.012782559
-0.2928249 0.23076203 0.04683526 -0.26334816 -0.025563505 -0.04265986 -0.0010564186 0.102507606
-0.2841529 0.114000574 0.06353991 -0.4443346 -0.026480647 0.35067323 0.21747202 0.0059520905
-0.042773217 0.032611113 0.05312223 -0.15561517 0.1542792 -0.015914338 -0.2190246 -0.60907686
-0.05371534 0.13752455 0.36876836 -0.08969779 0.11985723 -0.08652306 -0.5113061 -0.05490086
-0.005649099 0.0480162 0.075855345 0.18188153 -0.04001186 0.05133602 -0.25301993 0.190263
0.030579722 0.10386598 0.2603352 0.022082236 -0.026045237 0.028551532 -0.025437944 -0.15032129
-0.3993041 -0.06446183 -0.051744834 0.28248647 0.055339683 -0.044549555 -0.008975612 -0.058917865
-0.02531304 0.13438106 -0.37200963 -0.19730635 0.024285613 -0.29084218 -0.035996296 -0.38674417
00000000: 9391 3e3c e6bb af3c 1428 9f3e 0dc7 abbd
00000010: aa14 49be 9461 03bd 1525 283e 7e10 203e
00000020: 45e8 a53b 65d8 97bc 9a76 d6be da61 14bd
00000030: 0655 0c3c fc19 d2bc 798a 923d 33a8 f23c
00000040: 3c14 28bd d790 03bd 9489 7f3d 3fc4 6e3c
00000050: 6dd9 e73c e6cc b0bd 8545 febb f4f7 263d
00000060: 42fa 283e 1162 0a3b 24d6 3f3c 3116 2bbe
00000070: e0df d13c 10bb 7dbe da61 c23c f327 433e
00000080: b260 673c 9291 9b3d cc8a 53be 6f89 a6bd
00000090: 3a99 fabd 31db c63d 8a47 9e3d 87f2 9abe
000000a0: 9de6 3a3c 84c4 c33d 3d6d 423c 7ed3 d4bc
000000b0: ec93 543d b76e 9ebe 3e70 5bbe 7cfb 65bd
000000c0: 30fa 53be 65f1 18bf 922d c03d b3b1 493c
000000d0: ee72 04be 52b8 4b3c 70cc 9abd 218a 6e3d
000000e0: 33d9 8ebd d33a 86bd 0436 b03d 25df 0ebd
000000f0: a8e6 60be 7e03 a03c c67c 7f3d 312d 86bc
00000100: 4f7c f43d 4265 b23c f558 e83c cb1b 6e3e
00000110: 216b 003d 46d4 973d c008 813d 3665 eb3d
00000120: 35ab c93d bf2a 5c3e 6fe8 73bd b2ab f43c
00000130: 2bac bbbd 8a02 1c3e 80ee e93d 1a24 0fbd
00000140: 8780 543c bac5 393d 25c2 65bd dcd9 63be
00000150: 0b8d b1bd 3661 883d af90 96be 8bc0 d03b
00000160: 1cbb 863d e911 c7bc 131e 6cbe 12e2 2ebe
00000170: 023b 713d 873e a8bd 5ad8 963d 3b13 b7bc
00000180: 2a37 9e3d b747 4c3d 156b 2b3e 9164 833d
00000190: 9625 62bd 4f9e 14bd a3a2 553d b454 c0bc
000001a0: c94a 2f3d 41bf 49bd 1da1 0bbe 2907 4c3c
000001b0: 3801 8d3d 0edc 03bd 0fdb 923d 64ba 513d
000001c0: a023 8d3b d652 493d ce47 913d 1f03 e4bd
000001d0: a31f fd3d e263 a73c 1f8a a13d 1d4e c23d
000001e0: 5b79 793d 35d1 09bd 3afa 283e 2e88 8e3d
000001f0: 349a 353d 186b e9be bc0c ed3d ed36 9dbd
00000200: a6eb 73be 5ba6 4a3d 0ef6 55bd 5428 78bd
00000210: b56a 9bbe a8d8 203c 8620 adbe 434c 82be
00000220: 6bd7 25bd 892f 85bc f4ed adbe 5b8a 303d
00000230: bcd7 e3be cd76 ba3d ae11 a73d 9a31 843c
00000240: a6cd 073e 321b 33be f83b 9dbd 35df 29bd
00000250: c749 cbbc 1a11 12bd ba8c 443d f723 fbbc
00000260: 3b0b a0be ab52 a9bb 8853 a5bd 88c0 c63d
00000270: 19f5 953d 948f 503d 1c76 38bd 8d17 24be
00000280: c079 96be d979 caba 1509 f23c 0d19 d2be
00000290: b0cc dabe 9acd 91be 3507 7b3d f9b1 c4be
000002a0: 8ff4 9b3d f097 c73d c640 cabc bbdc 4f3d
000002b0: 7c61 943d cee5 983e 7141 db3d b7de 863d
000002c0: 70ed 89be 2a89 23be fd0b f9bd ffe2 443c
000002d0: 7088 823e 9058 adbd 5f13 c6bc ff82 08bf
000002e0: 5b38 273d 360b 63bd 685c 5e3d 74e6 99bd
000002f0: 8d45 103e a7cf 4abe 1a04 ecbd f06d 513c
00000300: 25ed 95be e24c 6c3e 54d6 3f3d 92d5 86be
00000310: 8e6a d1bc 1bbc 2ebd 8777 8aba 82ef d13d
00000320: 7d7c 91be 2279 e93d 3621 823d d37f e3be
00000330: f1ed d8bc 718b b33e fcb0 5e3e c109 c33b
00000340: f832 2fbd 3b93 053d b296 593d 9559 1fbe
00000350: 5efb 1d3e c95e 82bc fc47 60be 76ec 1bbf
00000360: 9e04 5cbd 3cd3 0c3e 35cf bc3e 7ab3 b7bd
00000370: b577 f53d 0133 b1bd f5e4 02bf b9df 60bd
00000380: 141c b9bb a3ac 443d 0c5a 9b3d 273f 3a3e
00000390: 7ae3 23bd b845 523d d48b 81be 4ed4 423e
000003a0: 5382 fa3c b0b7 d43d a84a 853e cee5 b43c
000003b0: d25c d5bc e7e4 e93c 3c63 d0bc d3ed 19be
000003c0: 9671 ccbe 9004 84bd 64f2 53bd 11a2 903e
000003d0: ddab 623d 9879 36bd 720e 13bc dc53 71bd
000003e0: 4b5d cfbc 309b 093e 0c78 bebe ad0a 4abe
000003f0: 9ff2 c63c 44e9 94be da70 13bd 5503 c6be

fc.2.bias f4 [10]
-0.04733458 -0.092966355 0.024183938 -0.018815087 -0.008078976 -0.072682045 0.049178984 0.07872183
-0.026046837 -0.09134525
00000000: e8e1 41bd 2565 bebd 651d c63c 1922 9abc
00000010: ae5d 04bc 53da 94bd e76f 493d e938 a13d
00000020: 2d60 d5bc 3813 bbbd
