L4T4 - Pytorch for CNNs/digit_model.pth (torch, 831429 bytes, 8 tensors)

conv.0.weight f4 [16, 1, 3, 3]
0	0x3ef9a4b7	0.4875848
1	0x3eedfae4	0.46480477
2	0xbe08e523	-0.13368659
3	0x3ef7dd6a	0.48411113
4	0x3e905850	0.28192377
5	0xbed44bbb	-0.41464028
6	0x3e743790	0.2384932
7	0xbe2deb1e	-0.16984221
8	0xbea7085c	-0.32623565
9	0xbe92237b	-0.28542694
10	0xbec0957a	-0.37614042
11	0xbeccca8e	-0.39998287
12	0x3ee67475	0.45010725
13	0x3e3ea45a	0.18617383
14	0xbcf5bb54	-0.029996552
15	0x3ed4fd0a	0.41599303
16	0x3ec42df3	0.38316306
17	0x3e86d8a7	0.26337168
18	0x3dc57d40	0.0964303
19	0x3e9b2095	0.30298296
20	0xbe88114d	-0.265757
21	0xbdf38a85	-0.11891655
22	0x3e9df9f7	0.3085477
23	0x3ecb83a3	0.39748868
24	0x3e692d35	0.22771151
25	0xbd75b968	-0.05999127
26	0xbda8e70a	-0.08247192
27	0x3d043102	0.0322733
28	0xbe3917ff	-0.1807556
29	0xbf104395	-0.5635312
30	0xbcd3474d	-0.025790835
31	0xbe759b53	-0.23985033
32	0x3e01088f	0.12600921
33	0x3ef93a9b	0.48677525
34	0x3ec8e99b	0.39240727
35	0x3e21b380	0.1579113
36	0xbd5461c2	-0.05185104
37	0x3f03132c	0.5120113
38	0xbee5102e	-0.44738907
39	0x3d98a43b	0.074531995
40	0x3e60f918	0.21970022
41	0xbedb9db6	-0.4289376
42	0x3d47e768	0.04880467
43	0x3e4a9166	0.19782028
44	0x3e85c123	0.26123914
45	0x3ec8b508	0.39200616
46	0x3e9c92b1	0.30580667
47	0xbed31f34	-0.41234744
48	0x3ed7ae31	0.42125085
49	0x3e98c5e2	0.29838473
50	0xbd9c40f0	-0.07629573
51	0x3b9d0165	0.004791426
52	0x3db9292a	0.090410545
53	0xbe9bea03	-0.30451974
54	0x3da35182	0.07974531
55	0xbe20782c	-0.15670842
56	0x3eb7797a	0.35834867
57	0xbe9d853a	-0.30765706
58	0x3dbcc348	0.092169344
59	0x3de1cb3f	0.11025094
60	0xbe8c266b	-0.2737306
61	0x3cc652f9	0.024209486
62	0x3ec2bc3c	0.38034236
63	0xbeb64a7f	-0.3560371
64	0xbcaeeac9	-0.021352189
65	0x3e132457	0.14369331
66	0xbcebe283	-0.028794533
67	0xbde82b39	-0.11336369
68	0x3e11193c	0.14169782
69	0x3e1a4c2c	0.1506812
70	0x3ec6e413	0.38845882
71	0x3eb1e881	0.347477
72	0xbe9fb364	-0.31191552
73	0x3dfcfbdc	0.12352726
74	0x3e0f6a89	0.14005484
75	0x3e350a87	0.17679797
76	0x3ec9de95	0.3942763
77	0x3eb31deb	0.34983763
78	0x3e550047	0.20800887
79	0x3e9276d2	0.28606278
80	0x3e4bd49f	0.19905327
81	0xbe7faaeb	-0.24967544
82	0xbf11eca8	-0.57001734
83	0xbe8619b4	-0.26191485
84	0xbea1c1e7	-0.31593248
85	0xbe17677f	-0.14785574
86	0x3e0ead01	0.13933183
87	0x3ca461f4	0.020066239
88	0x3e9cf9ef	0.30659434
89	0x3f12feac	0.5741985
90	0xbe8028eb	-0.25031218
91	0xbd486ac0	-0.04892993
92	0xbd6b4668	-0.05744019
93	0xbea1c3fb	-0.31594834
94	0xbe1ff598	-0.1562103
95	0xbd9558d0	-0.0729233
96	0x3d8eabec	0.06966385
97	0xbd733920	-0.05938065
98	0xbd4bcc78	-0.049755543
99	0x3ee0a490	0.4387555
100	0x3ec5eb89	0.38656262
101	0x3bdebeab	0.0067976317
102	0xbdde3165	-0.10849265
103	0x3e4f3ddd	0.20238443
104	0x3e835794	0.25652754
105	0xbf0d3412	-0.5515758
106	0xbdbdaa52	-0.09261002
107	0x3d055482	0.032551296
108	0x3d8281ff	0.06372451
109	0xbe392007	-0.18078624
110	0x3e5b64c8	0.21425164
111	0xbcd68ec2	-0.02619112
112	0x3ed34cec	0.41269624
113	0x3e563060	0.20916891
114	0x3e688edb	0.22710745
115	0x3e5c3ceb	0.21507613
116	0x3eb6dea5	0.3571674
117	0x3ee7ac49	0.4524863
118	0x3e139c99	0.14415206
119	0x3f0810d5	0.53150684
120	0xbe7e5e5e	-0.24840686
121	0xbe83c49f	-0.25735947
122	0x3c506819	0.012720131
123	0xbd5f7dde	-0.054563396
124	0xbf1b1e47	-0.60593075
125	0x3d635ed7	0.05551037
126	0x3d86fe4c	0.06591472
127	0x3dc3950b	0.09549912
128	0x3e5e1cbd	0.2169065
129	0xbe2f33ce	-0.17109606
130	0x3e833751	0.2562814
131	0x3ee8475c	0.45366943
132	0xbecd7fb5	-0.40136495
133	0xbdd38ead	-0.103299476
134	0x3ea9c2de	0.33156484
135	0x3e8fbf9c	0.28075874
136	0x3ea81ac2	0.32832915
137	0x3e9080e4	0.28223336
138	0xbe17f45e	-0.14839312
139	0x3d1dffe0	0.0385741
140	0xbe605de4	-0.21910816
141	0xbecd7807	-0.40130636
142	0x3e54887f	0.20755194
143	0x3e1908a0	0.14944696

conv.0.bias f4 [16]
0	0xbd980a24	-0.07423809
1	0xbbd3d0f9	-0.0064641205
2	0xbd5dfd16	-0.05419644
3	0x3d1065d5	0.035253365
4	0xbe6dc363	-0.23219065
5	0xbbbb1a1a	-0.0057098987
6	0xbe646561	-0.22304298
7	0xbd4eaf9e	-0.05046045
8	0xbe4fc33b	-0.20289318
9	0x3dde6d98	0.10860747
10	0xbdcd8e56	-0.10036914
11	0xbe1b55cb	-0.15169446
12	0x3e1e2215	0.15442689
13	0xbcef3573	-0.029200291
14	0xbdd77070	-0.105194926
15	0xbded0742	-0.1157365

conv.3.weight f4 [32, 16, 3, 3]
0	0xbda72f38	-0.08163303
1	0xbdec1c85	-0.11528877
2	0xbce5f325	-0.028070042
3	0xbe2454b7	-0.16047941
4	0xbd26c141	-0.040711645
5	0x3e86788b	0.26263842
6	0xbd8a4f81	-0.067534454
7	0x3e638114	0.22217208
8	0x3d88332e	0.06650387
9	0xbdceda55	-0.10100237
10	0x3cb5c409	0.022188203
11	0xbd390694	-0.04517229
12	0xbd3605fa	-0.044439293
13	0xba9eccc9	-0.0012115474
14	0x3c286597	0.010278127
15	0xbd8ae6b6	-0.06782286
16	0xbd358768	-0.044318587
17	0xbdc52fbb	-0.096282445
18	0xbd9121cb	-0.070865236
19	0xbde62efe	-0.11239432
20	0x3caa2f34	0.020774461
21	0xbe0b2154	-0.13586932
22	0x3d449ea4	0.048002854
23	0x3d7efefe	0.0622549
24	0x3ca429c0	0.02003944
25	0x3d978829	0.07399017
26	0xbd55aa1d	-0.052164186
27	0xbdb3aea2	-0.08773543
28	0xbce7d4c0	-0.02829969
29	0xbd969a18	-0.0735361
30	0xbc069577	-0.008214346
31	0xbd95d9a1	-0.073169
32	0xbe4244e6	-0.18971595
33	0x3d90bff2	0.07067861
34	0xbd9fe8e2	-0.07808091
35	0xbcd8e0ea	-0.026474435
36	0xbe47ad22	-0.19499639
37	0xbedbcc4b	-0.429293
38	0xbecefe80	-0.40428543
39	0xbea0b856	-0.31390637
40	0xbe709c4f	-0.23497127
41	0xbe107e88	-0.14110768
42	0xbe7e3030	-0.2482307
43	0x3e2d74f5	0.16939147
44	0x3dd12af0	0.10213268
45	0x3abf8130	0.0014610644
46	0xbe21ae19	-0.15789069
47	0xbe2e40f2	-0.17016962
48	0xbe6448f3	-0.22293453
49	0xbd4a6b84	-0.04941894
50	0x3de8202c	0.11334261
51	0xbe1742ac	-0.14771527
52	0x3d81761a	0.06321354
53	0x3d683557	0.056691494
54	0xbe08332b	-0.13300769
55	0xbc9cbb80	-0.019132376
56	0x3e655bf9	0.22398366
57	0x3e04c20e	0.12964651
58	0x3e46ed28	0.19426405
59	0xbd53b900	-0.0516901
60	0x3e7aa471	0.24476792
61	0x3ce90a68	0.028447345
62	0xbe5daadd	-0.2164721
63	0xbe0842c6	-0.13306722
64	0x3d991740	0.07475138
65	0x3e34b879	0.17648496
66	0xbb26881d	-0.002541072
67	0x3de65f97	0.11248701
68	0x3d983b8c	0.07433233
69	0x3da62b01	0.08113671
70	0x3d87b4c0	0.06626272
71	0xbe02afb7	-0.12762342
72	0xbda4733f	-0.08029794
73	0x3c991671	0.018687459
74	0x3e4c0144	0.19922358
75	0x3d0d57eb	0.034507673
76	0x3e4f0bd8	0.20219362
77	0x3df75534	0.12076798
78	0x3de36544	0.11103299
79	0x3dfa5169	0.12222559
80	0xbdee9a18	-0.11650485
81	0x3bdf7e2a	0.00682046
82	0x3e3cf5b6	0.18453106
83	0x3eaec83d	0.34137145
84	0x3d86b565	0.06577567
85	0x3e2f46a2	0.17116788
86	0xbd80527c	-0.06265733
87	0x3e66f4b7	0.22554289
88	0xbda9291b	-0.08259793
89	0xbe549858	-0.2076124
90	0x3d6200da	0.055176593
91	0xbda2b6da	-0.079450324
92	0xbd4b0978	-0.049569577
93	0x3d9e84e9	0.07740194
94	0xbd0c7583	-0.034291755
95	0x3d14ddb2	0.036344238
96	0xbc69cb80	-0.01426971
97	0x3d96596d	0.07341275
98	0x3d34e9c2	0.04416824
99	0xbd7ee2b8	-0.062227935
100	0xbe5e94f3	-0.21736507
101	0xbe6b93ce	-0.23005602
102	0xbe01be90	-0.1267035
103	0xbe89d848	-0.26922822
104	0xbe34abd2	-0.17643669
105	0xbe8b1f4a	-0.2717231
106	0xbe0158d1	-0.12631537
107	0xbd2fe1ea	-0.042940058
108	0xbe020877	-0.12698542
109	0x3ce6ce1e	0.028174456
110	0x3e375131	0.17902066
111	0xbd31eabd	-0.043436754
112	0x3d3408a9	0.04395357
113	0x3dd90e91	0.105984814
114	0x3d5a379b	0.053275686
115	0x3e0e1032	0.13873366
116	0xbd1401a0	-0.036134362
117	0xbd06de7a	-0.032927014
118	0xbe24c162	-0.16089395
119	0xbe28c20b	-0.16480272
120	0xbda5e048	-0.08099419
121	0xbeb724b0	-0.35770178
122	0xbd320f30	-0.043471515
123	0xbe033ef4	-0.12816983
124	0xbe683da4	-0.22679764
125	0xbddbf1f5	-0.10739509
126	0xbd7b57e1	-0.061363105
127	0xbd4a1cfa	-0.04934404
128	0x3d283d24	0.041073933
129	0xbcdd9f86	-0.027053606
130	0x3ca54833	0.020176029
131	0xbe047c29	-0.12937988
132	0x3e15e505	0.14638145
133	0x3d9c07c9	0.076186724
134	0xbde26aa5	-0.11055497
135	0x3cfc1c59	0.030775236
136	0xbe0a238f	-0.13490127
137	0xbcd330cf	-0.02578011
138	0xbe3c8091	-0.18408419
139	0x3c0e4e5c	0.0086856745
140	0x3d601549	0.0547078
141	0xbe05cc1c	-0.13066143
142	0x3c925949	0.01786484
143	0xbdb7632b	-0.08954462
144	0x3c2e401d	0.010635403
145	0x3dbcacad	0.09212623
146	0xbb25ad3a	-0.0025280253
147	0xbd08c722	-0.033393033
148	0xbd0b1195	-0.033952314
149	0x3da95a96	0.08269231
150	0xbe3612d3	-0.17780618
151	0xbc7bca2f	-0.015368029
152	0x3db88e38	0.09011501
153	0xbd39f65b	-0.04540096
154	0x3d2410ff	0.04005527
155	0xbd81b950	-0.06334174
156	0xbd797a40	-0.060907602
157	0x3db7e67c	0.08979508
158	0x3df4cdd8	0.11953324
159	0xbdd5a455	-0.104317345
160	0x3d39f9ab	0.045404118
161	0x3d9ee061	0.07757641
162	0xbc7b301c	-0.015331294
163	0xbbe112a1	-0.006868676
164	0xbdf2a48d	-0.11847792
165	0x3caab363	0.020837491
166	0x3dec6a1f	0.115436785
167	0xbaaa4737	-0.0012991194
168	0x3b34646a	0.0027525672
169	0x3db57982	0.088610664
170	0x3d8dc4d3	0.06922307
171	0x3cb2864c	0.021792553
172	0x3ba37f24	0.0049895216
173	0x3d6b84c7	0.057499673
174	0xbd75af67	-0.05998173
175	0x3dabb0ca	0.08383329
176	0x3acece2d	0.0015777998
177	0xbd0ce3d3	-0.034396958
178	0xbc6958b1	-0.014242337
179	0x3d39b0f1	0.04533476
180	0x3e6606a0	0.22463465
181	0x3e72f4fb	0.23726265
182	0x3e10d307	0.14143
183	0x3e72206a	0.23645177
184	0x3ed86464	0.42264092
185	0x3e3f7aa7	0.18699132
186	0x3ded3a33	0.11583366
187	0x3e235b7a	0.15952864
188	0x3e93ecf9	0.28891733
189	0xbcacc3f7	-0.021089537
190	0x3d1686c8	0.03674963
191	0xbde21160	-0.1103847
192	0xbc8f0668	-0.01745911
193	0x3daded58	0.08492535
194	0xbd654c4d	-0.05598097
195	0xbd857af7	-0.06517594
196	0x3b9f09fc	0.004853485
197	0x3d59c401	0.05316544
198	0x3e92b33a	0.28652364
199	0x3dc15982	0.094409004
200	0x3d5cd443	0.053913366
201	0x3e655e42	0.22399238
202	0x3df0c45d	0.11756203
203	0xbd2d6afb	-0.042338353
204	0x3dde9e3b	0.10870024
205	0x3e11f985	0.1425534
206	0xbd430a43	-0.04761721
207	0xbc128143	-0.008941951
208	0xbe22fc14	-0.15916473
209	0xbdd4c157	-0.10388439
210	0xbdcc8bf2	-0.0998763
211	0x3cfa24e1	0.030535163
212	0x3d9bc039	0.07605023
213	0x3d19ecbe	0.03757929
214	0x3ce12766	0.027484607
215	0x3cd7762a	0.026301462
216	0x3d2142d6	0.03937038
217	0xbddd4081	-0.10803319
218	0xbe440b5f	-0.19144963
219	0x3be63100	0.007024884
220	0xbd9a3e06	-0.07531361
221	0xbc4de454	-0.012566645
222	0xbdadb863	-0.084824346
223	0x3c7227ae	0.014779968
224	0x3de57e99	0.11205787
225	0xbdfc360d	-0.12314997
226	0xbe170eb4	-0.14751703
227	0x3d175d03	0.036953937
228	0xbead8fbc	-0.33898723
229	0xbe7a7e2f	-0.24462198
230	0xbdddbf73	-0.10827532
231	0xbdb5913e	-0.088655934
232	0xbe231cb5	-0.1592892
233	0xbe06bc37	-0.13157736
234	0xbda6fe20	-0.08153939
235	0xbd0ffbfe	-0.035152428
236	0xbd880e4a	-0.066433504
237	0x3d3c64f6	0.04599472
238	0x3d212b0a	0.039347686
239	0x3c2a7b28	0.010405339
240	0xbd04eb0e	-0.032450728
241	0x3c238288	0.009979852
242	0xbd362c6e	-0.044475965
243	0x3d00c0df	0.031433936
244	0xbd84799f	-0.0646851
245	0xbe3a8237	-0.18213736
246	0x3e03d4ee	0.12874195
247	0x3e5169a9	0.20450462
248	0xbe110a58	-0.14164102
249	0xbda78e92	-0.0818149
250	0x3d957b3e	0.07298897
251	0x3d58a70b	0.05289368
252	0x3ca40ad5	0.020024696
253	0xbd088ed2	-0.03333933
254	0xbe2f0e7e	-0.17095372
255	0xbe088bbf	-0.13334559

conv.3.bias f4 [32]
0	0xbe0cdcf3	-0.1375616
1	0xbe15aa95	-0.14615853
2	0xbe1fa23c	-0.15589231
3	0xbd8b7b90	-0.06810677
4	0xbba20be4	-0.004945265
5	0xbe0ebe43	-0.13939767
6	0xbcdc332b	-0.026879868
7	0xbd706318	-0.058688253
8	0x3d4b20eb	0.04959194
9	0x3cf3cd84	0.029761083
10	0x3be01ef1	0.006839626
11	0xbd26b9b0	-0.04070443
12	0xbd4374fd	-0.04771899
13	0x3c9f0414	0.019411124
14	0xbdc71c35	-0.09722177
15	0xbd523823	-0.051323067
16	0xbd0cee1d	-0.03440677
17	0xbdd0292c	-0.10164103
18	0xbe09938f	-0.13435195
19	0xbcd1436a	-0.02554484
20	0xbcf5318d	-0.029930854
21	0xbd7e423f	-0.062074896
22	0xbe46ebd1	-0.19425894
23	0xbc2743bf	-0.010209023
24	0x3c54a9ec	0.012979966
25	0xbc63ab09	-0.013895758
26	0xbe03d260	-0.1287322
27	0xbe1a5eac	-0.15075177
28	0xbcdcac61	-0.026937665
29	0xbe14cd71	-0.14531495
30	0xbca4cde6	-0.020117711
31	0xbdb16f54	-0.08663812

fc.0.weight f4 [128, 1568]
0	0xbcb0cf8f	-0.021583347
1	0x3c034498	0.0080119595
2	0x3c171da3	0.009223375
3	0xbc8ae16e	-0.016953196
4	0xbcd371b8	-0.025811061
5	0xbc583444	-0.013196055
6	0x3cc6d43a	0.02427112
7	0xbaaa4139	-0.0012989409
8	0x3ca48059	0.020080732
9	0xbcfefae5	-0.031125495
10	0xbc49354c	-0.012280773
11	0xbc95b20d	-0.018273378
12	0xbbcd297b	-0.0062610484
13	0x3cb46b21	0.02202374
14	0x3c1e8103	0.0096743135
15	0xbceb78c3	-0.028744107
16	0x3c185c27	0.009299315
17	0x39dd8d17	0.00042257525
18	0x3c4a6342	0.0123527665
19	0x3cf6496d	0.030064309
20	0x3cb9f1e2	0.022698347
21	0xbc524448	-0.012833662
22	0xbbe64142	-0.0070268223
23	0xbc2790df	-0.010227411
24	0x3c960b53	0.018315947
25	0xbcdac7cc	-0.026706599
26	0xbc000aef	-0.007815107
27	0xbc3c8aab	-0.01150767
28	0xbcb03342	-0.021508817
29	0x3c2128a5	0.009836351
30	0x3c7f7432	0.015591668
31	0xbc092e3c	-0.00837284
32	0xbcbec5f6	-0.023287755
33	0x3c77fb04	0.01513553
34	0x3c9d7c94	0.019224443
35	0xbc249285	-0.010044699
36	0x3bba1458	0.0056786947
37	0xbb899860	-0.0041990727
38	0x3c70659a	0.014672661
39	0xbbc49fb4	-0.0060004834
40	0xbc355cdf	-0.0110695055
41	0xbc5c7bd7	-0.01345726
42	0x3c84be1b	0.01620393
43	0x3d04d3e6	0.032428645
44	0xbcbcb8f8	-0.023037419
45	0xbce83179	-0.028343903
46	0xbbe977cc	-0.0071248766
47	0xbc25bf5b	-0.0101164235
48	0x3cbea392	0.023271356
49	0x3c481e28	0.012214221
50	0xbcd791ff	-0.026314734
51	0xbc82218d	-0.015885139
52	0x3b1576b0	0.002280634
53	0xbcd402ab	-0.025880178
54	0xbca60abb	-0.020268789
55	0xbd02640e	-0.0318337
56	0xbbd89ccb	-0.006610488
57	0xbcaaec7b	-0.020864716
58	0xbc124bcf	-0.008929207
59	0xbce244a8	-0.027620628
60	0xbc2b9405	-0.010472302
61	0xbca59039	-0.020210372
62	0xbc2e03f7	-0.0106210625
63	0x3c5f8ed9	0.013644897
64	0xbbfbb38a	-0.007681315
65	0xbd00ecfd	-0.03147601
66	0x3c964f17	0.01834826
67	0xbcdbf1b6	-0.026848655
68	0x3c381cfa	0.011237377
69	0xbc888f8b	-0.01667001
70	0xbcb0e236	-0.02159224
71	0xb9731741	-0.00023182949
72	0x3c830e3b	0.015997997
73	0xbc628bc6	-0.01382727
74	0x3b742fff	0.0037260053
75	0xbcead6ec	-0.028666936
76	0xbce03867	-0.027370645
77	0xbc748343	-0.014923873
78	0xbbd56a2a	-0.0065129
79	0xbc6b5869	-0.01436434
80	0xbc9162d4	-0.01774732
81	0x3c79ac85	0.015238886
82	0x3c24dd3c	0.010062512
83	0xbcb2237e	-0.02174544
84	0xbcb49696	-0.022044461
85	0xbcf4335a	-0.029809643
86	0xbc3579c8	-0.011076398
87	0xbc2d9138	-0.010593705
88	0xbb8285a3	-0.003983216
89	0xbcb8a017	-0.022537274
90	0xbc5ecf36	-0.013599208
91	0xbd00c870	-0.031441152
92	0xbc61ff05	-0.013793712
93	0x3c0cfae8	0.008604743
94	0x3c1035df	0.008801906
95	0xbcc773d7	-0.024347229
96	0x3c601cd3	0.013678747
97	0xbd0350cf	-0.032059487
98	0xbbfcf060	-0.0077190846
99	0x3bee2880	0.0072680116
100	0x3b539bca	0.0032288902
101	0xba6ad245	-0.0008957724
102	0xbc20c2e1	-0.009812088
103	0x3c08e969	0.008356431
104	0xbb1c7835	-0.002387536
105	0xba802799	-0.0009777426
106	0xbca4a09f	-0.020096121
107	0xbb417d09	-0.002952399
108	0xbcc9ed68	-0.024649337
109	0xbb86cca7	-0.004113752
110	0x3b9db32e	0.0048126196
111	0xbc5f303e	-0.013622342
112	0x3af31fdd	0.0018548925
113	0xbc97fc4e	-0.018552925
114	0x3b87d866	0.0041456698
115	0xbb43570e	-0.0029806527
116	0xbc807d3e	-0.01568472
117	0x3b21361a	0.0024598897
118	0x3acbba7b	0.0015543246
119	0x3c1a49ca	0.009417007
120	0xbcb6520e	-0.022255924
121	0x3c3519f6	0.011053553
122	0x3bfe2dd5	0.0077569284
123	0xbc6c6dc3	-0.014430466
124	0xbc750b0e	-0.014956249
125	0x3c86d981	0.016461136
126	0xbba920d8	-0.005161386
127	0xbc0f214a	-0.008735964
128	0xbc9170c4	-0.017753966
129	0xbba565bf	-0.0050475295
130	0x3c25ddfe	0.010123728
131	0x3bfa88d9	0.007645708
132	0xbc62be67	-0.013839341
133	0xbb8d2183	-0.0043069734
134	0x3cd92e15	0.026511231
135	0xbb993962	-0.00467603
136	0x3c507061	0.012722106
137	0xbc2529cc	-0.010080766
138	0x3b8d285a	0.004307789
139	0xbc114057	-0.0088654375
140	0xbc3134d7	-0.010815821
141	0x3c85dcb1	0.016340585
142	0x3cce060e	0.025149371
143	0xbcba89f8	-0.022770867
144	0x3c1d326b	0.00959454
145	0xbcc5600b	-0.024093648
146	0x3afc0dc3	0.0019230176
147	0x3c7cccb8	0.015429668
148	0xbb7cea48	-0.003859179
149	0x3c59c934	0.0132925995
150	0xb9f88440	-0.0004740078
151	0x3c8f4a6e	0.017491546
152	0x3cb63cb0	0.022245735
153	0xbc990d75	-0.018683175
154	0x3c88da6c	0.016705714
155	0x3c886716	0.016650718
156	0xbc29f21c	-0.010372665
157	0xbc92837a	-0.017884959
158	0x3c93b4e2	0.018030588
159	0xbcb1de19	-0.02171235
160	0x3c716718	0.014734052
161	0x3cc55356	0.02408759
162	0x3ca1ef50	0.019767433
163	0x3c919c32	0.017774675
164	0xbb8d209c	-0.004306866
165	0xbba8badc	-0.0051492285
166	0xbb881f10	-0.0041540936
167	0x3c50173c	0.012700852
168	0x3cc50a7a	0.024052847
169	0xbb91f4f8	-0.0044542514
170	0x3ca2c7a2	0.019870583
171	0x3cc4ff5e	0.02404755
172	0xbbc8ab64	-0.006123947
173	0xbb525270	-0.0032092594
174	0x38b05400	8.40798e-05
175	0xbc1f440e	-0.009720815
176	0x3a2cc5e0	0.0006590765
177	0x3bab2910	0.005223401
178	0x3b94754c	0.0045305844
179	0xbcc1eca1	-0.023672404
180	0xbc5c1052	-0.013431625
181	0x3b857bac	0.0040735807
182	0x3c853d38	0.016264543
183	0xbcbb98c8	-0.0229
184	0x3b5bb588	0.003352495
185	0x3bd41be8	0.0064730532
186	0x3b2afd88	0.0026091058
187	0x3c5df5fc	0.013547417
188	0xba46aa60	-0.00075784884
189	0xbc997d1a	-0.01873641
190	0xbcb0d176	-0.021584254
191	0x3c14fc4c	0.009093355
192	0x3cc6e256	0.024277847
193	0x3cae1658	0.021250889
194	0xbbdf4cf0	-0.0068145916
195	0x3c0a2e60	0.008433908
196	0xbbbdf5f5	-0.0057971426
197	0xbc0d5da6	-0.008628285
198	0xbcb66917	-0.022266908
199	0x3bb50f39	0.0055254963
200	0xbc3eb1f7	-0.01163911
201	0xbd02f7d7	-0.03197464
202	0xbc320e6a	-0.010867694
203	0xba1f03aa	-0.00060659146
204	0xbcee67d4	-0.029102243
205	0xbccf132d	-0.025277698
206	0xbcca79fc	-0.02471637
207	0xb9e4b34e	-0.0004362114
208	0xb9b9c736	-0.00035434373
209	0xbc71e31b	-0.014763619
210	0x3a058bc6	0.0005094375
211	0xbc20c726	-0.009813106
212	0x3c0dea61	0.008661837
213	0xbc4c63e6	-0.0124749895
214	0x3c0c42e8	0.008560874
215	0x39fd6082	0.00048327824
216	0xbcb14d03	-0.021643167
217	0xbcb1fb33	-0.021726226
218	0xbcdbfcff	-0.026854036
219	0xbcd91e3f	-0.02650368
220	0xbc1855e6	-0.0092978235
221	0x3c7ce198	0.015434645
222	0xbb929aa5	-0.0044740015
223	0x3c486619	0.012231373
224	0xbb8fc380	-0.004387319
225	0x3baf5918	0.005351197
226	0xbc081107	-0.008304841
227	0xbc8ddde0	-0.017317712
228	0xbb204a45	-0.002445833
229	0x3c54271d	0.012948778
230	0x3c74a0a8	0.014930882
231	0xb922f82b	-0.00015541974
232	0x3ac17dd1	0.0014762228
233	0x3c5b06e3	0.013368341
234	0xbc009724	-0.007848535
235	0xbc54c71f	-0.012986927
236	0xbb7062e2	-0.0036680032
237	0x3bf12609	0.0073592705
238	0xbcece3f0	-0.028917283
239	0x3b92556e	0.0044657504
240	0xbbab6986	-0.0052310852
241	0x3ba1ebe6	0.0049414514
242	0xbcdcb016	-0.026939433
243	0xba275397	-0.0006383
244	0x3c769710	0.015050665
245	0xbca26a32	-0.019826028
246	0xbc06857e	-0.008210538
247	0xbc794ee4	-0.015216563
248	0x3cc3f5bb	0.023920884
249	0x3ab4049e	0.0013734286
250	0xbbf21cc6	-0.007388684
251	0x3ca278c2	0.019832972
252	0x3c896f5d	0.016776735
253	0xbc0384f2	-0.008027302
254	0xbc9ce963	-0.019154256
255	0x38ff8c83	0.0001218552

fc.0.bias f4 [128]
0	0xbcbf6235	-0.023362258
1	0xbd17e6b7	-0.03708526
2	0x3b3d5547	0.002888994
3	0xbcb9e257	-0.022690935
4	0x3c9161de	0.017746862
5	0xbb9c483c	-0.004769353
6	0x3cc629b9	0.024189817
7	0x3ac5cbcf	0.0015090647
8	0xbcaf2d31	-0.021383854
9	0xbb100ad8	-0.002197912
10	0xbcdd7a54	-0.02703587
11	0x3d18114c	0.03712587
12	0xbcfd1b10	-0.030896693
13	0xbc3c49c1	-0.011492194
14	0x3c817ea6	0.015807461
15	0x3baef9ac	0.005339822
16	0x3b25148f	0.0025189256
17	0xbd406933	-0.046975326
18	0xbd192005	-0.03738405
19	0x3d8941b0	0.06701982
20	0xbc9dfcda	-0.019285608
21	0xbad24fb5	-0.0016045483
22	0xbbf99d87	-0.0076176557
23	0xbc30df05	-0.0107953595
24	0x3be5599f	0.006999209
25	0x3c4f37b7	0.012647561
26	0x3d02cef9	0.031935666
27	0xb8b7bde0	-8.761487e-05
28	0x3cc848fc	0.024448864
29	0xbcf66e82	-0.030081991
30	0xbc61495d	-0.013750401
31	0xbb29cca0	-0.002590932
32	0xbc2a77a6	-0.010404503
33	0xbce2ba27	-0.027676655
34	0x3c2933e2	0.010327311
35	0xbc701d70	-0.014655456
36	0x3ca93364	0.020654388
37	0x3ccecb64	0.025243469
38	0x3cae7ccf	0.021299748
39	0x3d095816	0.03353127
40	0x3b37de22	0.0028055985
41	0xbb8617f2	-0.00409221
42	0x3c0a3892	0.008436339
43	0xbcabeb3c	-0.020986192
44	0xbc3753d9	-0.011189424
45	0x3ce11885	0.027477512
46	0x3c84d035	0.016212562
47	0xbce87153	-0.02837435
48	0x3cbea3d5	0.02327148
49	0xbcc13a56	-0.023587387
50	0xbc342af4	-0.010996569
51	0xbcacd5f7	-0.02109812
52	0xbc9cf399	-0.019159125
53	0xbb551537	-0.0032513866
54	0xbc820071	-0.015869351
55	0xbcb70750	-0.022342354
56	0xbd149ee8	-0.036284357
57	0xbc856151	-0.016281756
58	0x3ccb6c01	0.024831774
59	0xba949fca	-0.0011339125
60	0x3b938cc6	0.0045028655
61	0xbcc59aaf	-0.02412161
62	0x3c7bd82d	0.015371365
63	0x3cd023e0	0.025407732
64	0xbca416e5	-0.020030448
65	0xbbe84ffc	-0.007089613
66	0xbcbf7d9c	-0.023375325
67	0x3c904cf4	0.01761482
68	0xbca30d44	-0.019903786
69	0xbcf536bd	-0.029933328
70	0x3bc6d55f	0.0060679163
71	0xbd5aaef8	-0.05338952
72	0xb9547381	-0.00020260924
73	0xbc73bdfc	-0.014876839
74	0xbca20321	-0.019776883
75	0x3d13a169	0.036042605
76	0xbd045168	-0.032304198
77	0x3c90a9d6	0.01765911
78	0xbc1327a5	-0.00898162
79	0xbba9890c	-0.005173808
80	0x3b82687a	0.0039797397
81	0x3b55053e	0.0032504345
82	0xbcc42ef1	-0.023948165
83	0xba90d6a1	-0.0011050293
84	0xbc8df517	-0.017328782
85	0xbc9bdf0e	-0.01902726
86	0xbc087bb0	-0.008330271
87	0x3c722019	0.0147781605
88	0xbc6ee5ae	-0.014581127
89	0xbc292560	-0.010323852
90	0x3d2891f4	0.041154817
91	0xbcf36056	-0.029709022
92	0xbc38c547	-0.011277503
93	0x3c0f9891	0.008764402
94	0xbcede8a6	-0.0290416
95	0xbcb934ff	-0.022608278
96	0xbc3e5dd4	-0.01161905
97	0x3aa50ecf	0.0012592914
98	0x3d1daba6	0.038493775
99	0x3c18f20b	0.009335051
100	0x3b5b7d83	0.003349156
101	0x3ca8ea6a	0.02061959
102	0x3bf100be	0.007354825
103	0x3be03e0f	0.0068433355
104	0x3ccf457e	0.025301691
105	0x3ad0173a	0.0015876063
106	0xbc8d410b	-0.017242929
107	0xbaeda0f7	-0.0018129636
108	0x3949393d	0.00019190177
109	0x3b1e6d1d	0.0024173923
110	0x3cb10226	0.02160747
111	0x3c05e959	0.00817331
112	0xbcd6110b	-0.026131174
113	0x3d3ecc0c	0.046581313
114	0xbcbe4dea	-0.023230512
115	0xba4fca69	-0.0007926585
116	0x3c062df1	0.008189664
117	0x3c0d10be	0.008609949
118	0x3d1271e8	0.03575316
119	0xbc85346d	-0.01626035
120	0xbb974b7d	-0.004617153
121	0xbcb4211e	-0.021988448
122	0xbb807b4c	-0.003920948
123	0xbc5e2b0b	-0.013560067
124	0x3c53c2e9	0.012924888
125	0x3bc494ed	0.0059991986
126	0xbd5eb438	-0.05437109
127	0xbb8c710d	-0.0042859376

fc.2.weight f4 [10, 128]
0	0xbc00469a	-0.007829333
1	0xbd394f83	-0.045241844
2	0xbc356aa1	-0.011072786
3	0xbbb240ff	-0.005439877
4	0xbd8c03d2	-0.06836666
5	0x3cf7126e	0.030160155
6	0x3d823150	0.06357062
7	0x3d7c15a9	0.061544094
8	0x3d5e105e	0.054214828
9	0x3bf7ea5f	0.007565781
10	0xbc582865	-0.013193225
11	0xbd96ca2a	-0.073627785
12	0x3da54a67	0.08070832
13	0xbe423633	-0.18965988
14	0xbd5d9496	-0.05409678
15	0x3bfdb235	0.007742191
16	0x3dff1830	0.12455785
17	0x39d3e0b1	0.00040412464
18	0xbcbb9a6f	-0.022900788
19	0xbd950e70	-0.07278144
20	0xbcbcdbe8	-0.023054078
21	0xbd9d0923	-0.07667758
22	0xbd8d85af	-0.06910264
23	0xbd844367	-0.064581685
24	0xbd60d127	-0.054886963
25	0x3c802c78	0.015646204
26	0xbcb6b42d	-0.022302711
27	0x3ced76ba	0.028987277
28	0x3db2c18b	0.08728322
29	0x3d66ab07	0.056315448
30	0x3ca89e80	0.020583391
31	0xbb59e21b	-0.0033246342
32	0x3cff88ac	0.0311931
33	0x3da82d14	0.08211723
34	0xbda38746	-0.07984786
35	0x3da0cda5	0.078517236
36	0xbdd79435	-0.10526315
37	0xbe51e4cf	-0.2049744
38	0xbce089ee	-0.02740952
39	0x3d5fdea1	0.054655675
40	0x3cb05ba5	0.021528075
41	0x3d340a10	0.04395491
42	0xbd00dbab	-0.03145949
43	0x3c92cbed	0.017919505
44	0x3d9452ac	0.07242331
45	0x3d9c5469	0.076332875
46	0x3d773850	0.06035644
47	0xbcd89d96	-0.02644233
48	0x3e0d3d5f	0.13792942
49	0xbd0ca476	-0.03433653
50	0xbdb125fe	-0.086498246
51	0x3ca4365b	0.02004545
52	0xbdbaff38	-0.0913071
53	0xbdb51f31	-0.0884384
54	0xbd623add	-0.055231918
55	0x3d6f1170	0.05836624
56	0xbd250312	-0.04028613
57	0xbd8fbbdb	-0.070182525
58	0x3dd1b5fe	0.102397904
59	0x3dc74f92	0.09731974
60	0x3d943468	0.07236558
61	0xbd86be65	-0.065792836
62	0x3c15a1e8	0.00913284
63	0x3db1494e	0.0865656
64	0xbb86afaa	-0.0041102963
65	0xbdf48e94	-0.11941257
66	0xbe548c0f	-0.20756553
67	0x3d38685b	0.045021396
68	0x3c672018	0.014106773
69	0xbdc330d0	-0.095307946
70	0x3cc68aef	0.02423617
71	0x3c9e27ec	0.019306146
72	0x3e138803	0.14407353
73	0x3d689cee	0.056790285
74	0x3d00c4f8	0.031437844
75	0x3dc2ceed	0.09512124
76	0xbe2b3b35	-0.16721804
77	0xbcb32045	-0.021865973
78	0x3d651973	0.055932473
79	0xbbfa7aa6	-0.0076440154
80	0xbc861228	-0.01636608
81	0xbcfd77ca	-0.030940909
82	0xbd08c126	-0.033387326
83	0xbdeca657	-0.11555164
84	0x3d824325	0.06360463
85	0xbd8a9294	-0.06766239
86	0x3c869291	0.01642731
87	0xbdcb0478	-0.09912962
88	0xbd0fdf40	-0.035125017
89	0x3d9266cb	0.071485125
90	0x3bf668db	0.007519824
91	0xbd5ad421	-0.05342496
92	0xbda63017	-0.08114641
93	0x3c0b379b	0.008497144
94	0xbdb5999c	-0.08867189
95	0xbc13a401	-0.00901127
96	0x3dab5a40	0.08366823
97	0xbda976d3	-0.08274617
98	0x3db3445e	0.087532744
99	0x3df05b18	0.11736125
100	0xbdc3ba50	-0.09557021
101	0xbe1344db	-0.14381735
102	0x3d29ed27	0.04148593
103	0xbe37ddbe	-0.17955682
104	0x3cd69fc9	0.026199238
105	0xbdc211ff	-0.09476089
106	0xb97e7ba7	-0.00024269392
107	0x3d545dfb	0.05184744
108	0x3d4bc65e	0.049749725
109	0x3d68df6c	0.056853697
110	0x3d53705b	0.051620822
111	0x3d4e2298	0.05032596
112	0xbce3933a	-0.027780164
113	0xbcf49001	-0.029853823
114	0xbd57383e	-0.05254387
115	0x3d821752	0.06352104
116	0x3dc1f086	0.09469704
117	0x3d3f59d0	0.04671651
118	0x3d8da9b8	0.06917137
119	0xbce01dbc	-0.027357928
120	0xbd56a730	-0.052405536
121	0x3d1f3ff3	0.038879346
122	0xbe002dd5	-0.12517484
123	0xbda84e4e	-0.082180604
124	0xbdb760b0	-0.089539886
125	0x3e06774f	0.1313145
126	0x3d8774f1	0.06614102
127	0xbdfc9251	-0.12332595
128	0x3c5f702a	0.013637582
129	0xbde2feaa	-0.110837296
130	0x3d53357e	0.051564686
131	0x3cbd81fc	0.02313327
132	0x3cf9a938	0.030476198
133	0xbda18d1a	-0.07888241
134	0xbdca09ac	-0.09865126
135	0x3c0c3990	0.008558646
136	0x3da61e99	0.08111305
137	0x3d83b11d	0.06430266
138	0xbc86137d	-0.016366715
139	0x3cb9624c	0.02262988
140	0xbd84101a	-0.06448384
141	0x3d9ce81e	0.0766146
142	0xbcf7dece	-0.030257609
143	0xbcdb12c6	-0.02674235
144	0x3dc7090e	0.09718524
145	0xbc04703a	-0.0080833975
146	0xbe1c3675	-0.15255149
147	0x3dee634c	0.11640033
148	0x3d38ceeb	0.045119207
149	0x3bd64d8e	0.006540007
150	0xbde7bcce	-0.113153085
151	0x3b408656	0.0029376945
152	0xbd88e6f2	-0.06684674
153	0xbd06b161	-0.032884005
154	0x3e01e98f	0.12686752
155	0xbe362c83	-0.17790417
156	0xbcf3a2c6	-0.029740702
157	0x3d848426	0.06470518
158	0x3d33c6e9	0.043890867
159	0xbc918b93	-0.01776675
160	0xbc96c223	-0.018403118
161	0xbd6a6a0a	-0.057230033
162	0x3d9d8c48	0.07692772
163	0xbd99afd4	-0.0750424
164	0x3ce3d043	0.027809268
165	0x3d6ecf2b	0.05830304
166	0x3c7ec4c1	0.0155498395
167	0xbe1d0ddd	-0.1533732
168	0x3d70b9ce	0.058770947
169	0x3b8158f3	0.003947371
170	0x3d76c021	0.060241822
171	0xbd13d27d	-0.03608941
172	0x3c9ee953	0.019398367
173	0xbd37083d	-0.04468559
174	0x3d88077e	0.06642054
175	0xbe42245e	-0.18959185
176	0x3e221215	0.1582721
177	0xbd3c72a7	-0.04600778
178	0xbe352691	-0.17690493
179	0xbd2e6efc	-0.04258631
180	0x3da9030f	0.082525365
181	0xbdcba629	-0.09943802
182	0xbd464f71	-0.048415605
183	0xbc7d6348	-0.015465565
184	0xbd46b81e	-0.04851543
185	0x3db7c3cf	0.089728944
186	0xbda3e1cb	-0.08002051
187	0xbe432dce	-0.19060442
188	0x3d72028e	0.059084468
189	0xbd3823de	-0.04495608
190	0xbd5c6fab	-0.053817432
191	0xbde11644	-0.10990575
192	0xbc1367f5	-0.008996953
193	0x3d54a3fa	0.051914193
194	0x3ab14f14	0.0013527595
195	0xbc88cf43	-0.016700393
196	0xbe2f57e8	-0.17123377
197	0xbe3574a5	-0.17720278
198	0xbcb328b7	-0.02187
199	0xbd20b061	-0.039230708
200	0xbde631b8	-0.11239952
201	0x3cf81874	0.030285098
202	0x3da9bbbe	0.08287762
203	0x3e09b0dc	0.13446373
204	0xbdc87c48	-0.0978933
205	0x3d4fa7bf	0.050697085
206	0x3d9a2d9b	0.0752823
207	0x3d714fb0	0.058913887
208	0x3bb09661	0.0053890203
209	0x3e0e5c4d	0.13902397
210	0xbd8f93a1	-0.0701058
211	0x3d3cf763	0.046134364
212	0xbcfa4dc1	-0.030554654
213	0xbba49402	-0.0050225267
214	0xbdae60fc	-0.08514592
215	0xbd69957b	-0.05702732
216	0xbdb05fbf	-0.08612012
217	0xbe0accd7	-0.13554703
218	0x3df10174	0.11767855
219	0x3c1fcca7	0.009753383
220	0x3d634301	0.05548382
221	0xbcbc4fa8	-0.022987202
222	0x3d680584	0.056645885
223	0xbd50f6d9	-0.051016662
224	0xbd0be5a4	-0.03415455
225	0xbe077249	-0.1322719
226	0xbe5652ec	-0.2093007
227	0xbe45c977	-0.19315134
228	0x3d186ff8	0.037216157
229	0x3cde0052	0.027099762
230	0xbe2eaa53	-0.17057161
231	0x3cad70b4	0.021171905
232	0xbe17941b	-0.14802592
233	0xbda1e223	-0.0790446
234	0xbda6d7bf	-0.08146619
235	0x3d4b88c8	0.04969099
236	0x3d635df7	0.055509534
237	0x3d986c70	0.07442558
238	0xbd47b4a8	-0.04875627
239	0xbd93290e	-0.07185565
240	0x3d96ad45	0.07357267
241	0x3db72a2f	0.08943593
242	0x3a16c7ab	0.0005751799
243	0x3d057ca1	0.03258956
244	0x3dc36044	0.095398456
245	0xbe33beea	-0.17553297
246	0xbe12616e	-0.14294979
247	0xbc15f6f6	-0.009153118
248	0xbbb7ccfc	-0.005609153
249	0x3d7c3b92	0.06158025
250	0x3df1e7d9	0.118117996
251	0xbc95850c	-0.018251918
252	0x3d5897ef	0.05287927
253	0x3e1a8c93	0.15092687
254	0x3dd06331	0.10175169
255	0x3c1da5d5	0.009622057

fc.2.bias f4 [10]
0	0xbcdd6328	-0.02702482
1	0x3d8f41fc	0.069950074
2	0xbd93cc02	-0.07216646
3	0x3bc76807	0.006085399
4	0x3c10a5dd	0.008828607
5	0xbd683482	-0.0566907
6	0xbcc5f247	-0.024163378
7	0x3cefb866	0.029262733
8	0x3d12c721	0.035834435
9	0x3d2223bf	0.03958487
