L4T4 - Pytorch for CNNs/fashion_model.pth (torch, 831457 bytes, 8 tensors)

conv.0.weight f4 [16, 1, 3, 3]
0	0x3e780cfc	0.24223703
1	0xbe9c21a8	-0.30494428
2	0x3e7fe808	0.24990857
3	0x3e903f75	0.28173414
4	0xbee9df7b	-0.45678315
5	0x3e736e37	0.23772512
6	0xbd2d5e25	-0.04232611
7	0xbd0a02bd	-0.033694018
8	0x3d8fccd0	0.07021487
9	0x3eb3c00d	0.3510746
10	0x3ece9e1a	0.40354997
11	0x3e07f788	0.1327802
12	0xbdaf7311	-0.08566869
13	0xbe52ae56	-0.20574316
14	0x3e79fbde	0.24412486
15	0x3ba01013	0.0048847287
16	0xbe28faca	-0.16501918
17	0xbca81182	-0.02051616
18	0xbd4a0326	-0.04931941
19	0xbe723a42	-0.23655036
20	0xbd9f42b6	-0.07776396
21	0x3e869e0a	0.2629245
22	0x3e51cdf4	0.20488721
23	0xbef6a3af	-0.48171756
24	0xbb96f80a	-0.0046072053
25	0x3ecc5938	0.39911819
26	0xbe8be2cc	-0.2732147
27	0xbe5f70a8	-0.21820319
28	0x3ea38e83	0.31944665
29	0xbd29dd49	-0.0414708
30	0x3f04c9aa	0.51870215
31	0x3c990cf9	0.018682944
32	0xbd2a4c87	-0.04157689
33	0xbe5dca2c	-0.21659154
34	0xbe976991	-0.29572728
35	0x3dacc8d0	0.084367394
36	0xbed3be8e	-0.4135632
37	0xbf035f91	-0.513177
38	0xbe6d3cf4	-0.23167783
39	0xbd46f2e1	-0.04857147
40	0x3ec4b352	0.3841806
41	0x3ee8bb0b	0.45455202
42	0xbd4fa163	-0.05069102
43	0x3dec2015	0.11529557
44	0x3ebead5b	0.37241635
45	0x3f01964c	0.5061996
46	0x3f1f7379	0.6228557
47	0x3ef7ea6a	0.4842103
48	0xbe31cec3	-0.1736403
49	0xbeabe7b7	-0.33575222
50	0x3e1b709b	0.15179674
51	0xbe84717b	-0.2586783
52	0xbf36796c	-0.71279025
53	0xbe79f1d8	-0.24408662
54	0xbf5c590e	-0.86073387
55	0xbf525415	-0.8215955
56	0xbf043055	-0.5163625
57	0xbf19f049	-0.6013227
58	0xbf766618	-0.9624953
59	0xbf26058c	-0.64852214
60	0xbf7358d8	-0.9505744
61	0xbf948f17	-1.1606168
62	0xbf6d41f4	-0.9267876
63	0xbed138c9	-0.40863636
64	0x3e6d612c	0.231816
65	0x3e42a429	0.19007935
66	0xbe637825	-0.222138
67	0xbdb40f94	-0.08792034
68	0x3ea691cb	0.32533106
69	0xbee181ba	-0.44044286
70	0x3eaf83ce	0.34280246
71	0x3dd404d8	0.10352486
72	0x3d882c3a	0.066490605
73	0xbe7bb7b5	-0.24581797
74	0xbf0439ca	-0.5165068
75	0x3e90da03	0.2829133
76	0x3e4b1f25	0.198361
77	0x3e90b732	0.28264767
78	0x3ef957e8	0.4869988
79	0xbeca7297	-0.3954055
80	0xbeeb1a7e	-0.4591865
81	0xbe52acf5	-0.2057379
82	0x3eb7f953	0.35932407
83	0x3d1cedc3	0.038312685
84	0xbe1033b8	-0.14082229
85	0x3e93348c	0.28751028
86	0xbe5fc14d	-0.21851082
87	0x3e3c1346	0.18366727
88	0x3c5a9b23	0.013342652
89	0xbec94e82	-0.3931771
90	0x3da48845	0.08033804
91	0x3ddf4ec3	0.109036945
92	0xbf250189	-0.6445547
93	0x3e6a0109	0.22851957
94	0x3e98439b	0.2973908
95	0xbe38100f	-0.17974876
96	0x3ee5abf0	0.4485774
97	0xbc9e5fbd	-0.019332761
98	0xbe7d45ee	-0.24733707
99	0xbceffd51	-0.029295595
100	0x3e33161e	0.17488906
101	0x3e4e81b7	0.2016667
102	0xbea90c2b	-0.33017096
103	0x3e9a0472	0.30081517
104	0xbd662c1c	-0.05619441
105	0xbdcc178b	-0.09965428
106	0x3dc51e9f	0.09624981
107	0xbdb97efa	-0.09057422
108	0x3dd48262	0.10376431
109	0xbea21eee	-0.31664222
110	0x3ebbc57f	0.36674115
111	0xbd5fc317	-0.05462941
112	0xbf141ba1	-0.5785466
113	0x3ef2a1ef	0.4738917
114	0x3ec51b5f	0.38497445
115	0xbeb3825d	-0.35060397
116	0xbd8c8f92	-0.06863321
117	0x3df33ac2	0.118764415
118	0x3e29d268	0.1658417
119	0xbd319bea	-0.04336158
120	0x3c88bf30	0.016692728
121	0x3e18c1a7	0.14917623
122	0x3ebf50f1	0.3736644
123	0x3d83c426	0.06433897
124	0x3cd5ff61	0.02612275
125	0x3e7c459e	0.24635932
126	0x3f113565	0.567221
127	0x3e127e67	0.14306031
128	0xbe1c4292	-0.1525977
129	0xbf84cb94	-1.0374627
130	0xbfcb72ce	-1.5894411
131	0xbf2481e4	-0.642607
132	0xbf65211f	-0.89503664
133	0xbf960e52	-1.172312
134	0xbeb72ceb	-0.35776457
135	0xbf3a3ef7	-0.72752327
136	0xbeb85f97	-0.3601043
137	0x3e527e16	0.2055591
138	0xbf5fb32b	-0.87382764
139	0xbf813b5b	-1.0096239
140	0x3dc36651	0.09541
141	0xbdfbb267	-0.12289887
142	0xbe46c86c	-0.19412392
143	0x3ee785b5	0.45219198

conv.0.bias f4 [16]
0	0xbde30829	-0.11085541
1	0xbd8e405f	-0.069458716
2	0x3e7c1240	0.24616337
3	0xbcbc89fd	-0.023015017
4	0xbb8c7665	-0.0042865747
5	0xbb5c6736	-0.0033630854
6	0x3e9f92b3	0.3116661
7	0x3c2fa1a7	0.010719693
8	0x3e5bf934	0.21481782
9	0x3d9c77b7	0.07640021
10	0x3c575f7b	0.013145323
11	0x3da72f78	0.08163351
12	0x3d68f28c	0.056871936
13	0xbe66bd6e	-0.22533199
14	0x3e6e9ff2	0.23303202
15	0x3e841df5	0.25804105

conv.3.weight f4 [32, 16, 3, 3]
0	0x3d938b84	0.07204345
1	0x3cac215e	0.021012004
2	0xbeb000a8	-0.343755
3	0x3e22f8e7	0.15915261
4	0x3defff3f	0.11718606
5	0xbe7d8776	-0.24758705
6	0xbe99fec5	-0.30077186
7	0xbe6ed588	-0.23323643
8	0xbe8f7c98	-0.28024745
9	0xbeb86714	-0.36016142
10	0xbdc9b62e	-0.09849201
11	0x3e149113	0.14508466
12	0x3e21d44b	0.1580364
13	0x3d22ea20	0.03977406
14	0x3ddf6e16	0.10909669
15	0xbe4503ce	-0.19239733
16	0xbc36f133	-0.011165905
17	0x3c8dec79	0.017324673
18	0x3d68acb2	0.05680532
19	0x3e178e17	0.14800297
20	0xbcd6996d	-0.026196206
21	0x3cbc1508	0.022959247
22	0xbdb29f04	-0.08721736
23	0x3ca3d4e2	0.019998971
24	0x3dac470f	0.08411991
25	0xbd180949	-0.03711823
26	0x3d06490d	0.03278451
27	0xbda37ec5	-0.07983164
28	0x3e00a4c5	0.12562855
29	0x3c9ccf87	0.019141925
30	0xbd4fa2fa	-0.050692536
31	0x3df4f1d6	0.11960189
32	0xbcfa52a2	-0.03055698
33	0xbe551130	-0.20807338
34	0x3d8e4c29	0.0694812
35	0xb8aec39c	-8.333402e-05
36	0xbd53c0c4	-0.051697508
37	0x3e727efc	0.23681253
38	0x3d92b733	0.07163849
39	0x3e1c2b33	0.15250854
40	0x3e1064c3	0.14100938
41	0x3ddd5dfe	0.10808943
42	0x3d650315	0.055911142
43	0xbee39c34	-0.4445511
44	0xbef2b468	-0.47403264
45	0xbd085df8	-0.03329274
46	0xbd0917c2	-0.033469923
47	0xbe313103	-0.17303853
48	0x3e33ebbb	0.17570393
49	0xbdfcb7ef	-0.1233977
50	0xbe388fa2	-0.18023542
51	0xbe6d62fa	-0.23182288
52	0x3caef2d6	0.021356028
53	0x3e2a95d0	0.16658711
54	0x3e34b2b1	0.1764629
55	0xbe8eebbd	-0.2791423
56	0xbe2bcebb	-0.1677808
57	0x3e0285a6	0.12746295
58	0xbe83fe33	-0.25779876
59	0xbdfaff4c	-0.12255725
60	0x3e02446e	0.12721416
61	0xbd7ad1d4	-0.061235264
62	0x3e214225	0.15747888
63	0x3e3df2fc	0.18549722
64	0x3e3afc44	0.18260294
65	0xbdf6405d	-0.12023995
66	0x3e9477bd	0.28997603
67	0x3e68f116	0.22748217
68	0xbe4242fe	-0.18970868
69	0x3e1bed0e	0.15227148
70	0xbe0da73a	-0.13833323
71	0xbddda329	-0.10822136
72	0x3be5a423	0.007008092
73	0xbd6c4620	-0.057684064
74	0x3d4ebd51	0.050473515
75	0xbe3c6e5f	-0.18401478
76	0xbe86da07	-0.26338217
77	0x3e5562d8	0.20838487
78	0x3c396228	0.011314906
79	0xbe0d37d9	-0.13790835
80	0x3c536947	0.012903518
81	0xbddf971a	-0.10917492
82	0x3e07400b	0.13208024
83	0x3e687c76	0.22703728
84	0xbe2b758b	-0.16744058
85	0x3d244c1c	0.040111646
86	0x3ceb868e	0.028750684
87	0xbd223d5f	-0.03960931
88	0x3d999aaa	0.07500203
89	0x3e54e085	0.20788772
90	0xbe65f49d	-0.22456594
91	0xbca1b99e	-0.01974183
92	0x3d93277d	0.07185266
93	0xbee50e36	-0.44737405
94	0xbe6b7063	-0.22992091
95	0x3e09e5b5	0.13466533
96	0xbe9cd0b8	-0.3062799
97	0xbe87ccc8	-0.26523423
98	0x3c48b982	0.01225126
99	0xbd070664	-0.03296508
100	0x3d6afd3b	0.057370406
101	0x3e25d806	0.16195688
102	0xbcb15d00	-0.021650791
103	0x3dd587e7	0.10426312
104	0x3dad1052	0.084503785
105	0xbd5078f6	-0.050896607
106	0xbd761a60	-0.060083747
107	0x3cb38572	0.021914218
108	0x3e7e58ae	0.24838516
109	0x3c75c141	0.014999689
110	0xbd1c8fa3	-0.03822292
111	0x3e4ba1d6	0.19885954
112	0x3d7b3eb6	0.061339103
113	0xbe510206	-0.20410928
114	0xbd873dc5	-0.066035785
115	0xbd3126b3	-0.043249797
116	0x3944f126	0.00018781851
117	0xbdefddb8	-0.11712211
118	0x3dc9075f	0.09815859
119	0x3d4aa850	0.04947692
120	0xbd661bb0	-0.05617875
121	0x3e288341	0.1645632
122	0x3dcfa581	0.10138989
123	0xbe02cc6a	-0.1277329
124	0xbc0ad032	-0.008472489
125	0xbc063a69	-0.008192637
126	0x3e2ac369	0.16676106
127	0xbdced2e3	-0.10098817
128	0xbe84df5e	-0.25951666
129	0x3eb2c3a8	0.349149
130	0xbeb54fae	-0.35412353
131	0xbec40ba1	-0.38290122
132	0x3d19e255	0.037569363
133	0xbd3f2d60	-0.046674132
134	0x3e6febd4	0.23429805
135	0x3eab00d3	0.33399066
136	0x3d974930	0.07387006
137	0xbe8b146e	-0.27164024
138	0x3e4574f7	0.192829
139	0xbe59000f	-0.21191429
140	0xbebe1ed7	-0.37132904
141	0x3e164d04	0.14677817
142	0xbe77e4c4	-0.24208361
143	0xbd1f47d0	-0.038886845
144	0xbc9731a1	-0.018456282
145	0xbe242e47	-0.16033278
146	0xbf02cb11	-0.51091105
147	0xbe1c8551	-0.15285231
148	0xbd19b6fe	-0.03752803
149	0xbed82cb4	-0.42221606
150	0xbc67fdf4	-0.014159668
151	0xbd5b3eab	-0.05352656
152	0xbaadca3c	-0.0013259123
153	0xbe919fa6	-0.28442115
154	0xbe81893c	-0.25300014
155	0xbc794766	-0.015214777
156	0xbe35975d	-0.17733522
157	0x3d978153	0.073977135
158	0x3c5769a9	0.01314775
159	0xbc86ec0d	-0.01646998
160	0x3b9d647e	0.0048032394
161	0xbe07c3c8	-0.13258278
162	0x3e25b8e5	0.16183813
163	0xbdcfc4c3	-0.10144951
164	0x3d8bab62	0.06819798
165	0xbdf49e1d	-0.1194422
166	0x3dfccbfe	0.12343596
167	0x3dd03470	0.10166252
168	0x3bdb3c5b	0.0066905445
169	0xbcf91482	-0.030405287
170	0x3e002366	0.12513503
171	0xbe9dd75a	-0.30828363
172	0xbe4899f2	-0.19589975
173	0x3d367cce	0.044552617
174	0xbe337cdf	-0.17528103
175	0x3cf6f760	0.030147254
176	0x3bbd36b5	0.005774344
177	0x3d676f2c	0.056502506
178	0x3e0ff6e0	0.14059019
179	0xbde6b7b0	-0.11265504
180	0xbed5a453	-0.41726932
181	0x3e92072c	0.28521097
182	0xbdf6e956	-0.12056224
183	0x3e16eeec	0.14739579
184	0x3ecb42c6	0.39699382
185	0xbeead7d5	-0.45867792
186	0x3eae4b3f	0.34041783
187	0xbe4aef33	-0.1981781
188	0xbe9a59c2	-0.30146605
189	0xbe7711d0	-0.24127889
190	0xbe4429f5	-0.1915663
191	0xbcf44b77	-0.02982114
192	0xbea722ff	-0.32643887
193	0xbe665072	-0.22491625
194	0xbc855566	-0.016276073
195	0x3dc8f1cc	0.09811744
196	0x3c87b8ba	0.016567577
197	0x3c96617b	0.01835703
198	0x3ed1ffb2	0.41015393
199	0xbdd34dcf	-0.10317575
200	0xbd3e21ed	-0.046419073
201	0x3ba062cd	0.0048945905
202	0xbf04d128	-0.5188165
203	0xbe268811	-0.16262843
204	0xbe7d7614	-0.24752074
205	0x3cca946a	0.024728972
206	0x3e295bd9	0.16538943
207	0xbeb4a7d7	-0.35284302
208	0x3eded3e5	0.43521038
209	0x3ca54abd	0.02017724
210	0xbdd51c01	-0.10405732
211	0x3ea2cfb6	0.31799096
212	0xbeacf0be	-0.33777422
213	0xbc4531a6	-0.012035763
214	0x3cef37eb	0.029201468
215	0xbe77c937	-0.24197851
216	0xbcf19593	-0.029490268
217	0xbda198f3	-0.07890501
218	0x3e46a4ed	0.19398852
219	0xbd3338fd	-0.04375552
220	0xbd7d5684	-0.061850086
221	0x3e778dd6	0.241752
222	0xbd1a3df7	-0.03765675
223	0x3e3281ab	0.17432277
224	0x3e6e5a2e	0.23276588
225	0x3daf6cd6	0.08565681
226	0x3e029559	0.12752284
227	0x3d860df3	0.06545629
228	0xbe075c7f	-0.13218878
229	0x3ebb203f	0.3654804
230	0x3d47c2ed	0.04876988
231	0x3d26023e	0.040529482
232	0x3e6692e4	0.22516972
233	0xbc848697	-0.016177459
234	0xbe26403e	-0.16235444
235	0xbdb1f161	-0.086886175
236	0x3e2f7893	0.17135839
237	0xbe06bc14	-0.13157684
238	0x3e3c1468	0.1836716
239	0x3dc69e1f	0.09698128
240	0xbe29caff	-0.16581343
241	0x3e88d3ee	0.2672419
242	0x3e4804f5	0.19533141
243	0xbe42d8fd	-0.19028087
244	0x3dd8c511	0.105844624
245	0xbd47edce	-0.048810773
246	0xbcef5725	-0.029216358
247	0x3e180547	0.14845763
248	0xbd832741	-0.064039715
249	0x3bbe7194	0.0058118794
250	0x3cc4acee	0.02400824
251	0xbe010ff8	-0.12603748
252	0xba0a564c	-0.00052771415
253	0x3ca4c035	0.020111183
254	0x3dfb415f	0.12268328
255	0xbcfe95f5	-0.031077364

conv.3.bias f4 [32]
0	0x3da6a463	0.08136823
1	0xbd42251c	-0.04739867
2	0x3d09ac9c	0.03361188
3	0xbdb907ab	-0.09034666
4	0x39ff4b7b	0.00048693627
5	0x3dc291ce	0.09500466
6	0x3ced8e5a	0.028998543
7	0xbd826579	-0.063670106
8	0xbe32fe1d	-0.17479749
9	0xbc8fc73a	-0.017551053
10	0xbe1c214f	-0.15247081
11	0x3be9286c	0.0071154144
12	0xbcb59cd1	-0.022169502
13	0xbdf9e562	-0.122019544
14	0xbcddf3ea	-0.027093846
15	0x3de9794f	0.11400091
16	0x3e99782d	0.299745
17	0xbe26914b	-0.16266362
18	0xbd487e8d	-0.048948813
19	0x3e86bf42	0.26317793
20	0xbd857f93	-0.065184735
21	0x3c4fe5e8	0.012689091
22	0xbe17a37a	-0.14808455
23	0xbe85bf0a	-0.26122314
24	0xbd8fce70	-0.07021797
25	0x3e28ea6b	0.16495673
26	0xbe1d47e3	-0.15359454
27	0xbd7d72bb	-0.061876994
28	0x3c4424f0	0.011971697
29	0x3e4f5969	0.20248951
30	0xbded60c1	-0.1159072
31	0xbdb10c4c	-0.086449236

fc.0.weight f4 [128, 1568]
0	0x3c81174a	0.015758175
1	0xbb7390b0	-0.0037165098
2	0xbc1db619	-0.009625935
3	0xbc0a7664	-0.008451078
4	0x3cae2cd8	0.021261618
5	0x3c006a60	0.007837862
6	0xbc72420f	-0.014786257
7	0x3bf13518	0.0073610656
8	0xbbcd3b3e	-0.0062631657
9	0xbcdaaf3f	-0.026694892
10	0x3cb59d66	0.02216978
11	0xbc952445	-0.018205771
12	0x3c764e38	0.015033297
13	0x3b1de171	0.0024090672
14	0xbc9dbc17	-0.019254727
15	0xbc8c802a	-0.017150957
16	0xbca67fab	-0.020324549
17	0xbc0ed494	-0.008717675
18	0xbcc9501c	-0.024574332
19	0x3b9ee210	0.004848726
20	0xbc75e213	-0.015007514
21	0xbcadfda9	-0.021239119
22	0xbcd2c815	-0.025730172
23	0xbcebfe19	-0.028807687
24	0xbb12cea0	-0.002240099
25	0xbccb56b0	-0.02482161
26	0xba1f1660	-0.0006068703
27	0xbc35b123	-0.011089596
28	0xbc510c3a	-0.012759263
29	0xbc4e9a53	-0.012610036
30	0xbc84fd75	-0.016234139
31	0xbcce59a3	-0.025189226
32	0xbc3c604b	-0.011497567
33	0x3c21da24	0.009878669
34	0x3c7e6c0c	0.01552869
35	0x3c2a222c	0.010384124
36	0xbc365be6	-0.011130309
37	0xbbace7ff	-0.0052766795
38	0x3ca87c3e	0.020567056
39	0x3c0ad42c	0.008473437
40	0x3c2f3038	0.010692649
41	0xbbdb9ea2	-0.00670226
42	0xbc59de97	-0.013297698
43	0x3aee1f80	0.0018167347
44	0x39a6f8fe	0.000318475
45	0x3c1eb961	0.009687752
46	0x3c9108aa	0.017704327
47	0xbc8209e8	-0.015873864
48	0xbca70be5	-0.020391414
49	0xbcb82621	-0.022479119
50	0xbcc69841	-0.024242522
51	0x3c1e8658	0.009675585
52	0xbbe9e2c3	-0.007137628
53	0x3c5ddc0d	0.013541234
54	0xbceea908	-0.029133335
55	0xbc944d13	-0.018103158
56	0xbbaedd94	-0.0053364728
57	0xbcc92b92	-0.024556909
58	0x3c9b1226	0.018929552
59	0x3c91ec04	0.017812736
60	0x3b64a04a	0.0034885579
61	0xbc6d7b2b	-0.014494698
62	0x3c1cb096	0.009563586
63	0x3c07cd07	0.008288628
64	0x3c903884	0.017605074
65	0xbcba154c	-0.022715233
66	0x3aa7465f	0.0012762061
67	0x3c7ef9f3	0.015562522
68	0x3bb450c8	0.005502794
69	0x3c90a5a1	0.017657103
70	0xbcf176ac	-0.029475532
71	0xbc8a2829	-0.016864853
72	0xbc6d957b	-0.014500971
73	0xbc7b0d43	-0.015322986
74	0xbc1917f7	-0.009344093
75	0xbb504394	-0.003177856
76	0xba7b0ce6	-0.0009576812
77	0xba3741d2	-0.0006990704
78	0xbc3ac959	-0.011400544
79	0xbc81e0c7	-0.015854253
80	0x3c8e46e5	0.01736779
81	0xbb34f75b	-0.0027613256
82	0x3ac4641c	0.0014983448
83	0xbca56977	-0.020191891
84	0xbc66a367	-0.014077044
85	0xbc035804	-0.00801659
86	0xbafb7628	-0.0019184994
87	0x3c878c98	0.016546533
88	0x3c695540	0.014241517
89	0x3c6e5efa	0.014549011
90	0x3c0fa1da	0.008766616
91	0xbb43d513	-0.002988164
92	0xbc243532	-0.010022448
93	0xbc04c08e	-0.008102549
94	0xbc341a99	-0.0109926695
95	0xbca31b6a	-0.019910533
96	0xbc8fe612	-0.01756576
97	0xbca6c1be	-0.020356055
98	0x3c302559	0.010751092
99	0x3bdaeee4	0.00668131
100	0xbccbad49	-0.024862902
101	0x3bb448b8	0.005501833
102	0x3bb1b7e2	0.005423532
103	0x3c5ccfd5	0.013477285
104	0xbb056528	-0.0020354483
105	0xbc8ebf82	-0.017425302
106	0xbcb5f8b8	-0.022213325
107	0xbce75dfe	-0.028243061
108	0xbc8f5142	-0.017494801
109	0xbcd2b0fb	-0.025719156
110	0x3bdf79ae	0.0068199253
111	0x3b9a1368	0.0047020204
112	0xbcd871d9	-0.026421474
113	0xbc1e0920	-0.00964573
114	0xbc28fb95	-0.010313888
115	0x3c95c4d2	0.018282328
116	0x3c5b53c7	0.013386673
117	0xbc4f492f	-0.012651726
118	0xbb738f60	-0.0037164316
119	0xbbacacee	-0.0052696383
120	0x3b36ebcd	0.0027911544
121	0x3ba1b22b	0.0049345694
122	0xbbaf4020	-0.0053482205
123	0xbc5d415b	-0.0135043515
124	0xbc387ecc	-0.0112606995
125	0xbbdeb2b0	-0.0067962036
126	0xbce5cd91	-0.028052123
127	0xbc4759b0	-0.012167379
128	0x3c4404f8	0.011964075
129	0x3c7fe06f	0.015617474
130	0xbbace45a	-0.005276245
131	0x3bf89845	0.0075865113
132	0xbcb8a56a	-0.022539813
133	0x3c961a72	0.018323157
134	0xbcbd25e0	-0.02308935
135	0xbca9b394	-0.020715512
136	0xbced6d41	-0.02898276
137	0xbc407825	-0.011747395
138	0x3c11fe43	0.008910718
139	0x3c7953dc	0.015217748
140	0x3bc9211d	0.0061379806
141	0xba815a53	-0.0009868838
142	0xbc861266	-0.016366195
143	0xbcd1ded6	-0.025618952
144	0xbc9a9e58	-0.018874332
145	0x3c817920	0.015804827
146	0xbca08099	-0.01959257
147	0xbcf8d645	-0.03037561
148	0xbc93ba85	-0.018033275
149	0xbb9985b1	-0.0046851267
150	0xbbc92914	-0.00613893
151	0xbc76e8fa	-0.015070194
152	0xb9b0f169	-0.000337492
153	0x3c45bb09	0.012068518
154	0x3b535191	0.0032244662
155	0xbcadc665	-0.021212766
156	0x3c8b0fef	0.016975371
157	0xbcb3d2fb	-0.02195119
158	0xbccf9d79	-0.025343644
159	0x3c793a85	0.015211706
160	0x3c83c9e1	0.016087474
161	0xbc37e2d9	-0.011223518
162	0x3c0da602	0.008645536
163	0xbc752771	-0.014963017
164	0x3c7679a6	0.015043652
165	0x3c370cfc	0.011172529
166	0x3ab9f33f	0.0014186873
167	0xbcd3462a	-0.025790293
168	0xbc311556	-0.01080831
169	0x3c18392c	0.009290975
170	0xbbd998bd	-0.0066405223
171	0x3c8c6fa5	0.01714308
172	0x3c3627b5	0.011117865
173	0x39bef8c7	0.00036424978
174	0xbcfda1a7	-0.03096087
175	0xb967b3bf	-0.00022096837
176	0x3c63174f	0.013860538
177	0xbccf5329	-0.025308209
178	0xbcb6f321	-0.02233273
179	0xbc1d99a5	-0.009619151
180	0xbc7051f1	-0.014667974
181	0x3c9cc49f	0.019136725
182	0x3b5d57cd	0.0033774257
183	0x3b3ccf94	0.002881025
184	0x3afaeb75	0.0019143658
185	0xbc37b9c6	-0.011213725
186	0x3b139808	0.0022521038
187	0xbcbd62c8	-0.023118392
188	0xbcd8b826	-0.026454996
189	0xbca9ffa6	-0.020751785
190	0xbceaf1f5	-0.028679827
191	0xbcd0bc29	-0.025480347
192	0xbc326743	-0.010888877
193	0xba4b0c3d	-0.0007745659
194	0x3c7e3813	0.015516299
195	0xbca8f306	-0.020623695
196	0xbbc509cb	-0.0060131303
197	0xbbf1e17d	-0.0073816166
198	0xbcf75b83	-0.030195003
199	0xbcd9feef	-0.02661082
200	0x3c6216bc	0.013799366
201	0x3c97421b	0.018464139
202	0x3b8f2c90	0.004369326
203	0x3bb42b8c	0.0054983553
204	0x3c83e4ea	0.016100366
205	0x3beae334	0.007168198
206	0xbabe4e17	-0.0014519122
207	0xbcd0997b	-0.02546381
208	0x3c9cf315	0.01915888
209	0x3c74ba22	0.014936956
210	0xbcdded27	-0.027090622
211	0xbcb8cbbb	-0.022558084
212	0xbcfa3e63	-0.030547326
213	0xbbbfced4	-0.0058535133
214	0xbbd50603	-0.006500961
215	0xbbf0b61b	-0.0073459274
216	0x3bf28c22	0.007401959
217	0xbbe1fc67	-0.006896544
218	0x3aa3a5f1	0.0012485367
219	0x3c447a97	0.011992118
220	0xbc51e178	-0.012810104
221	0x3bf509a7	0.0074779573
222	0xbc4218c4	-0.011846725
223	0xbcba19f2	-0.02271745
224	0xbc67c143	-0.014145198
225	0xbc3628ac	-0.011118095
226	0x39547b23	0.00020263768
227	0xbcf91f3b	-0.0304104
228	0xbcf5e746	-0.030017506
229	0xbcad7331	-0.021173092
230	0x3c0a7bf8	0.008452408
231	0x3c8fa287	0.017533554
232	0xbc936f6c	-0.017997466
233	0xbcd9a700	-0.02656889
234	0x3bd48528	0.0064856
235	0xbcefedd3	-0.029288208
236	0xbcf71ce0	-0.030165136
237	0xbc80c642	-0.015719537
238	0x3c86c5f5	0.016451815
239	0xbcfd42c5	-0.030915627
240	0xbb79fb93	-0.0038144335
241	0xbc09c0ac	-0.008407753
242	0xbc46cbcf	-0.012133553
243	0xbc162d7e	-0.00916612
244	0x3c96c09b	0.018402388
245	0xbbb60822	-0.0055551687
246	0x3b8b0859	0.0042429385
247	0x3c63be71	0.013900385
248	0xbbb114d2	-0.0054040933
249	0xbcdf0422	-0.02722365
250	0xbc874df6	-0.016516667
251	0x3c3bfead	0.011474294
252	0xbccebd82	-0.025236849
253	0xbbdff188	-0.0068342127
254	0xbc7a7a27	-0.015287912
255	0xbc870b20	-0.016484797

fc.0.bias f4 [128]
0	0xbba9d650	-0.0051830187
1	0x3d3bff66	0.045897864
2	0x3d1e8f43	0.038710844
3	0xbd397151	-0.045274083
4	0xbb2e007c	-0.0026550582
5	0xbbc3070c	-0.005951768
6	0xbbc21bc1	-0.0059237187
7	0xbaa39fba	-0.0012483515
8	0x3b660376	0.0035097278
9	0xbc17c4dc	-0.0092632435
10	0x3ca9066c	0.020632945
11	0xbce9fa00	-0.028561592
12	0x3cd3525d	0.02579611
13	0x3da0e6ab	0.078564964
14	0xbd810edd	-0.06301663
15	0xbce96067	-0.028488351
16	0xbc752ab7	-0.014963797
17	0x3d3c1b41	0.04592443
18	0xbcc300be	-0.023804065
19	0x3d22d19f	0.03975069
20	0x3d4fb540	0.050709963
21	0xbcc55029	-0.024086075
22	0xbc2ee6a7	-0.010675109
23	0xbd1a2c87	-0.03764012
24	0x3cf77571	0.030207368
25	0xbc8cb29c	-0.017175011
26	0x3c8a934e	0.016915943
27	0x3c8c6a6a	0.017140586
28	0xbcdec4f5	-0.027193526
29	0xbca9cdee	-0.020728078
30	0x3d4f226b	0.050569933
31	0x3d874cd4	0.06606451
32	0x3cfad89a	0.030620862
33	0x3a94a5e9	0.0011340949
34	0xbd541b77	-0.051784005
35	0xbcb58edb	-0.022162845
36	0x3c1105da	0.008851493
37	0xbcc6c7fe	-0.024265286
38	0xbc6f6dac	-0.01461355
39	0x3d454687	0.048162963
40	0x3db00ba6	0.08595972
41	0x3d0f47c7	0.03498056
42	0x3d879624	0.06620434
43	0x3d023fcc	0.031799123
44	0x3dd5c29c	0.104375094
45	0xbc7c4260	-0.015396684
46	0xbc63cecd	-0.013904286
47	0x3d2dfb8e	0.04247623
48	0x3b02b3ac	0.0019943519
49	0xbcbea68c	-0.023272775
50	0x3c83d926	0.016094755
51	0xbc9aa878	-0.01887916
52	0x39e74b4d	0.00044115857
53	0x3cc48785	0.023990402
54	0xbce91923	-0.028454369
55	0xbcdab28c	-0.026696466
56	0x3cb7d752	0.02244154
57	0x3c5239cf	0.012831165
58	0xbc4bea84	-0.01244605
59	0x3c696049	0.014244148
60	0xbcb229dc	-0.021748476
61	0x3c33fcb1	0.010985539
62	0x3d166dfc	0.036725983
63	0x3bbe9af2	0.0058168108
64	0xbcf4ea5d	-0.02989691
65	0x3d61b28f	0.055101927
66	0xbc1cfb41	-0.009581388
67	0xbcfd1a7e	-0.030896422
68	0xbb0d4f40	-0.002156213
69	0xbcf840a9	-0.03030427
70	0x3c93d23a	0.01804458
71	0x3d431fd6	0.047637783
72	0xbcc0575a	-0.023479152
73	0x3babcf93	0.0052432506
74	0x3d07dc88	0.0331693
75	0x3dc042f5	0.09387771
76	0xbc493921	-0.012281687
77	0x3c389931	0.011266992
78	0x3a0aac12	0.00052899227
79	0xbd828849	-0.063736506
80	0xbc5e2bf7	-0.013560287
81	0xbca8f3af	-0.02062401
82	0xbc800b68	-0.015630439
83	0x3bbb929e	0.0057242652
84	0x3d0104c8	0.0314987
85	0x3d098adb	0.03357969
86	0xbc435bc8	-0.011923738
87	0xbc8ff25f	-0.017571626
88	0xbc60ba27	-0.013716257
89	0x3c16f89d	0.009214547
90	0xbd4ea2f8	-0.050448388
91	0x3da88cdb	0.08229991
92	0xbd1a9fff	-0.03775024
93	0x3d31cac2	0.043406256
94	0xbd219ef3	-0.039458226
95	0x3dd250ab	0.102692924
96	0xbc94ba11	-0.01815513
97	0x3c110abc	0.008852657
98	0xbc8a659e	-0.016894158
99	0x3be51019	0.0069904444
100	0xbd669a29	-0.056299362
101	0xbccf9ee4	-0.02534432
102	0xbbd54936	-0.0065089716
103	0xbd317cee	-0.043332033
104	0xbc5fc574	-0.013657916
105	0x3d24789c	0.040154085
106	0xbc7cb072	-0.015422927
107	0xbc524df4	-0.012835968
108	0x3d7bfede	0.061522357
109	0x3d48c7a3	0.049018513
110	0x3da57524	0.080789834
111	0x3bd074c8	0.0063615777
112	0x3d8e0747	0.06934982
113	0xbcc4917c	-0.023995154
114	0xbc3f2060	-0.011665434
115	0x3d34c2f3	0.04413123
116	0xbc30ff08	-0.010802992
117	0x3d9f0195	0.077639736
118	0xbbb1e358	-0.005428713
119	0x3be83851	0.0070867916
120	0x3dcef1b9	0.10104699
121	0xbcd3ffe9	-0.025878863
122	0xbc3a619e	-0.011375813
123	0x3b8493d5	0.0040459433
124	0x39d76fe4	0.0004109136
125	0x3d51de01	0.05123711
126	0xbc6b4f51	-0.014362172
127	0xbd265130	-0.04060477

fc.2.weight f4 [10, 128]
0	0xbd74ae8c	-0.059736773
1	0xbe8dcb34	-0.27694094
2	0xbdc8412f	-0.09778058
3	0x3d57d396	0.05269202
4	0xbcc2fbec	-0.023801766
5	0xbd71f132	-0.059067912
6	0xbbaee5bc	-0.005337445
7	0xbe1d5e5e	-0.1536803
8	0x3d82be3f	0.06383943
9	0x3ccc6de8	0.024954751
10	0x3dc7f4b7	0.097634725
11	0x3d486f4b	0.048934262
12	0xbc2a8c67	-0.010409451
13	0xbc975cf1	-0.018476935
14	0xbceb3ffb	-0.028717032
15	0x3d6a14df	0.05714881
16	0xbd14699d	-0.036233533
17	0x3d545371	0.05183739
18	0x3cbf15ee	0.023325887
19	0x3e218f02	0.1577721
20	0x3c511cbe	0.0127632
21	0xbde3515b	-0.11099502
22	0x3d78dec9	0.06075934
23	0x3d9f87fd	0.077896096
24	0x3da7e8a6	0.08198671
25	0xbd74fd45	-0.05981185
26	0x3e838fe2	0.2569571
27	0x3da31c5e	0.07964395
28	0xbce0341d	-0.0273686
29	0xbd4e81fb	-0.050416928
30	0xbdea6b52	-0.11446251
31	0xbe9fdd8f	-0.31223723
32	0x3e343e4f	0.17601894
33	0x3d850853	0.06495728
34	0x3dd29774	0.10282794
35	0xbd79e464	-0.061008826
36	0xbe9910f3	-0.29895744
37	0xbbdb9a16	-0.006701718
38	0x3e86f072	0.2635532
39	0xbd8034e5	-0.06260089
40	0x3daa3ff2	0.08312978
41	0x3e9446b4	0.28960192
42	0xbd895d4f	-0.0670725
43	0x3df07eb2	0.11742915
44	0x3c5dd9c3	0.013540688
45	0x3bb4285f	0.0054979767
46	0xbc316b73	-0.010828841
47	0xbe8123ae	-0.25222534
48	0xbd84137c	-0.06449029
49	0x3d826534	0.06366959
50	0x3d2c5d4d	0.042081166
51	0xbda2b9ec	-0.07945618
52	0xbc6b527b	-0.014362927
53	0xbeb44184	-0.35206234
54	0xbd472f99	-0.048629377
55	0x3da7b0a0	0.081879854
56	0x3cef2d75	0.02919648
57	0x3cccea4e	0.025014069
58	0xbdbd3983	-0.09239485
59	0xbeb1b376	-0.3470723
60	0x3d0f31a3	0.034959447
61	0xbb953eb3	-0.0045545935
62	0xbed5969a	-0.41716462
63	0x3cd347c3	0.025791055
64	0xbd5e0000	-0.05419922
65	0x3c383754	0.01124366
66	0xbc7e793d	-0.015531835
67	0x3d3fc0b1	0.046814624
68	0xbe152f11	-0.14568736
69	0x3d5c43be	0.05377554
70	0x3d9d3795	0.07676617
71	0xbe643f56	-0.22289786
72	0x3d5bec4c	0.053692147
73	0x3de98c2d	0.114036895
74	0xbb9851a8	-0.004648406
75	0xba54713b	-0.0008104031
76	0xbd81c0dd	-0.06335614
77	0x3d251309	0.040301356
78	0x3dbae646	0.091259524
79	0xbc9b8c9a	-0.018987942
80	0x3d24ef5e	0.04026734
81	0xbd59a684	-0.053137317
82	0x3ca154c4	0.01969374
83	0x3d5342b1	0.051577274
84	0x3dedb0ef	0.11606013
85	0x3e59e43b	0.2127847
86	0x3d808134	0.062746435
87	0xbd82ed85	-0.063929595
88	0xbd670979	-0.05640552
89	0xbe633128	-0.2218672
90	0x3da2f737	0.07957309
91	0xbe18441d	-0.14869733
92	0xbd75cffe	-0.06001281
93	0x3d0c0e39	0.03419325
94	0xbe436c99	-0.19084395
95	0x3d83199d	0.0640137
96	0xbced2ee0	-0.028953016
97	0x3c8f17a5	0.01746733
98	0xbdb8ab00	-0.09016991
99	0x3dd9b015	0.10629288
100	0xbcb89ed3	-0.02253667
101	0x3caf03c1	0.021364095
102	0xbea68c0b	-0.3252872
103	0xbbde1cd8	-0.006778341
104	0xbce7cdfc	-0.028296463
105	0x3dfc5142	0.12320186
106	0xbdc19497	-0.094521694
107	0xbd46a3fa	-0.048496224
108	0xbda397e2	-0.07987954
109	0x3b098cf8	0.0020988565
110	0x3e336106	0.1751748
111	0x3d94186a	0.07231219
112	0xbe48c619	-0.19606818
113	0xbd4b00b5	-0.04956122
114	0x3d7579cd	0.05993061
115	0x3e25e839	0.16201867
116	0xbcc420f8	-0.023941502
117	0x3d441053	0.04786713
118	0x3d977e50	0.07397139
119	0x3c8c8d24	0.017157145
120	0x3dda7813	0.106674336
121	0xbdafa238	-0.08575863
122	0xbdb83383	-0.089942
123	0xbc843c0c	-0.016141914
124	0xbe105d31	-0.1409805
125	0xbd39d906	-0.045372985
126	0xbec33f51	-0.38134244
127	0xbdb29c83	-0.087212585
128	0x3bed8cb0	0.0072494373
129	0x3e685bfe	0.22691342
130	0xbeb37d9d	-0.35056773
131	0xbc6f0c96	-0.014590403
132	0xbd4498d5	-0.047997314
133	0xbc672c88	-0.014109738
134	0x3d980fd3	0.07424893
135	0xbec8fd08	-0.39255548
136	0xbce61d61	-0.02809018
137	0x3c1945ae	0.009354992
138	0x3d87ae66	0.06625061
139	0x3d3c34c2	0.04594875
140	0x3e524e8f	0.2053778
141	0xbedf9839	-0.43670824
142	0xbd4edfcc	-0.050506398
143	0xbd30598d	-0.043054152
144	0xbc708833	-0.01468091
145	0xbf01b717	-0.5067
146	0xbb5c15b1	-0.0033582265
147	0xbe7c7566	-0.24654159
148	0xbef32cb5	-0.47495046
149	0x3e0effe9	0.1396481
150	0xbe5a9aa6	-0.21348056
151	0xbc810ac0	-0.015752196
152	0xbd7f5385	-0.06233551
153	0xbd0127fb	-0.03153227
154	0xbea3055c	-0.31840026
155	0xbc4ca19c	-0.012489703
156	0xbc0e152b	-0.008672039
157	0x3df4bf49	0.11950547
158	0xbcf6053c	-0.030031793
159	0x3d496460	0.04916799
160	0xbe554fd0	-0.20831227
161	0xba8322d5	-0.0010004888
162	0x3dbbcdd4	0.09170118
163	0xbd7d6d43	-0.06187178
164	0xbe89ef1c	-0.26940238
165	0xbd085b70	-0.033290327
166	0xbe3677eb	-0.17819183
167	0xbe6786c3	-0.22610001
168	0xbe6088c6	-0.21927175
169	0xbe3735be	-0.17891595
170	0xbea070b3	-0.31335983
171	0xbea1c9cc	-0.3159927
172	0xbed851ad	-0.42249814
173	0xbbe76b67	-0.007062364
174	0xbd9b19ca	-0.07573278
175	0x3e3691d3	0.17829065
176	0xbdaad679	-0.08341689
177	0xbbfd2f44	-0.007726582
178	0xbd90ee98	-0.07076758
179	0xbd734a3b	-0.059396964
180	0xbc27c26a	-0.010239223
181	0xbdda1ae4	-0.1064966
182	0xbce4f49f	-0.027948676
183	0xbd4203c8	-0.047366887
184	0xbdc87ad7	-0.09789055
185	0xbcc29a92	-0.023755345
186	0xbc250ae5	-0.010073398
187	0x3e5b8af8	0.21439731
188	0xbbdd3114	-0.0067502353
189	0x3cf22e27	0.029563023
190	0xbca28aed	-0.019841636
191	0x3d2e1123	0.04249681
192	0x3ced9e20	0.029006064
193	0xbd13c201	-0.03607369
194	0x3d86b9e6	0.06578426
195	0x3c39aa07	0.011332042
196	0x3e16943e	0.14704987
197	0xbe8b2b02	-0.2718125
198	0xbde0d3b2	-0.10977878
199	0xbe863fc9	-0.2622054
200	0xbd4d45ad	-0.050115276
201	0x3d9225c2	0.07136108
202	0x3e1b5613	0.15169553
203	0x3cb50d50	0.022101074
204	0x3cb021b3	0.021500444
205	0x3b078b89	0.0020682535
206	0xbda9dc34	-0.082939535
207	0xbdd7b639	-0.10532803
208	0xbd104054	-0.035217598
209	0xbc7a5352	-0.015278654
210	0xbcf1f9d8	-0.02953808
211	0xbd0bdfe6	-0.034149073
212	0x3dcd18f8	0.10014528
213	0x3d20c6b0	0.039251983
214	0xbe5edf0c	-0.21764773
215	0x3d431729	0.04762951
216	0xbda5a410	-0.08087933
217	0xbde08499	-0.10962791
218	0x3d4ada56	0.049524628
219	0xbea27e21	-0.31736854
220	0xbdb6c38b	-0.089240156
221	0x3d77fd00	0.060544014
222	0x3dfd10e9	0.12356741
223	0x3e07a51b	0.13246576
224	0x3ae43bc3	0.001741283
225	0x3d556ef9	0.052107785
226	0x3d1eb711	0.038748804
227	0xbd4feae2	-0.05076111
228	0xbdfaf19b	-0.12253114
229	0xbc9e1a8a	-0.019299764
230	0xbeb0ef0b	-0.34557375
231	0xbca0e894	-0.019642152
232	0xbd40a99e	-0.04703676
233	0x3dba2854	0.09089723
234	0xbd81cf7e	-0.06338404
235	0x3cad9392	0.021188531
236	0xbeab0d36	-0.33408517
237	0xbe9ed326	-0.31020468
238	0x3d7e1135	0.06202813
239	0x3e6441b0	0.22290683
240	0xbe4a83d8	-0.19776857
241	0xbd5ef9ab	-0.05443732
242	0xbd846814	-0.06465164
243	0xbe3c23ff	-0.18373106
244	0xbe51d08a	-0.20489708
245	0x3dccc5ed	0.09998689
246	0xbd566266	-0.052339934
247	0xbca80302	-0.020509247
248	0xbefb22d3	-0.49050006
249	0x3c76d6d9	0.015065872
250	0x3ebcdbc8	0.3688643
251	0xbda42837	-0.08015483
252	0xbd1a0d6b	-0.037610453
253	0xb980b7d5	-0.00024551028
254	0xbea31e54	-0.31859076
255	0x3e03d65e	0.12874743

fc.2.bias f4 [10]
0	0xbb862643	-0.0040939166
1	0xbce07179	-0.027397858
2	0x3bf1eaf9	0.0073827473
3	0xbd9bf4f1	-0.07615078
4	0x3b544fdf	0.003239624
5	0xbcf143b2	-0.029451225
6	0x3a5bb101	0.00083805626
7	0xbbf7b63e	-0.0075595668
8	0xbd8be9ef	-0.06831729
9	0xbd00a8a3	-0.031410825
